source_code/saved_models/Double_DQN_Level1_BEST.pth (torch, 752477 bytes, 64 tensors)

feature_layer.0.weight f4 [256, 22]
00000000: ba46 4a3f 1438 5f3e 3d38 04be 39bf fa3e
00000010: f007 913e 9865 953e 8d1d 133e e4a8 c83e
00000020: f578 9a3e 9dec 283f c276 423e 421f 2e3f
00000030: 3d02 863e 427a 063f b8dc 633f ddf0 2bbe
00000040: 2e8c d3be 222f 873f 1d40 313f 178b 733e
00000050: 4b00 053f 4454 cb3e 63ef cd3e 4b42 1f3f
00000060: 38bd 223f 02c4 8e3e f218 923e d2c6 bb3e
00000070: 98cb 633e 6386 bf3e 9ad3 a13e 9c22 fb3e
00000080: 0d1d b63e b39e ca3e 32a9 363f a0cc abbe
00000090: 3023 1a3f 4f4c 64bd 93e8 78bf 015b 5b3f
000000a0: 9d29 243f 448e aa3e 64d5 203f c174 3b3f
000000b0: bd55 443f 1355 783e afab c7bc 4b5c efbd
000000c0: 11c9 b03e 4059 093f 9a55 c03e b5ae d43e
000000d0: eabf 6d3e ab61 1e3f 6c81 353f 5924 dc3e
000000e0: b65d ed3e 8df8 9d3f dbf5 243f 285b c73f
000000f0: 8277 f03e 5c2d 4b3e b442 2e3f ff97 2b3f
00000100: b90f 613f 587e 1d3f 5918 e43e 7d1a 8cbe
00000110: f561 eb3e b40c 423e ba6f f43e 285b 133f
00000120: 0431 ca3e eabb 143f 098c f73e 975c d63e
00000130: 80cd 013f 78f8 dc3e 5e09 cd3f 3fc4 a0bf
00000140: a9d6 353f 8be3 f73d 2d0c 003f 490d 46be
00000150: 2d6d 2f3f 9ce5 793f 5a85 203f 687c 153f
00000160: 584b dd3e 9f3a 4c3e 401e e33e 26eb b43d
00000170: e45b 5f3e 4f9a ae3e 1d55 40bf 76bb a53e
00000180: 7cac 543e 7910 b93e 66be b33e 8f6a 0e3f
00000190: 96f1 3abd 9013 4c40 eb26 993f 1c46 363e
000001a0: 11de 073f 66f0 273f 5c74 403e 3250 1d3f
000001b0: 694b 5c3f c574 c23e 52f3 f13e 323f eb3e
000001c0: 90a9 1c3f 51a5 e73e cd36 f83e 6e2c d83e
000001d0: eb40 8e3e dad1 e03e bdff cd3e e368 cd3e
000001e0: e525 ec3e ff2e ba3e f01f 7ebf e69d 9cbf
000001f0: 17ab 62c0 a103 903e 97b5 f73e 7a69 e33e
00000200: abc4 e63e bf5c ed3e 9f52 633f 6783 093f
00000210: 7442 07bc 3386 283f 43f0 4abe 866a a7bd
00000220: 5442 d63e 11b6 fc3e a72b 81be af49 d83e
00000230: 81ed 763e ca21 e83e 6d91 ae3e 28fc 8c3e
00000240: 9e05 3abe 54c4 743d eeb9 f0be aac4 ca3f
00000250: 6f05 523f ad35 053f d1c3 0e3f 6bbc e33e
00000260: 827e 0f3f b295 b73e b686 6f3e e493 bd3e
00000270: e529 b53e f0f3 523e 172a e63e 9ad8 fa3e
00000280: 4bf4 7d3e 10b0 fd3e 5c77 013f 3145 003f
00000290: b0c0 033f 3902 b53e 2f2a a93f 2d23 83c0
000002a0: 9e95 edbe 6e81 9f3e 6abb f53e 49f8 043d
000002b0: cb17 0a3f ccc6 983e fd0e 2a3f 7b09 103f
000002c0: c486 a83b 5dbb 953e 5b89 863e 5e22 193e
000002d0: eaea e83e cc86 483e aece 793e 8626 df3e
000002e0: e3a2 a73e 004f ef3e 128f 1f3f a6b4 6c3e
000002f0: 0a28 bcc0 0088 e43f 9678 e7be 44a0 f63e
00000300: f7c4 053f 32ca b73d 3af5 063f 8ba8 403f
00000310: b979 7b3e 0221 033f 20a6 1e3f bcdb 293f
00000320: c27f ce3e c605 8d3e f641 093f ae21 eb3e
00000330: 9d48 4a3e d04e bc3e 0ad5 d33e b1d7 fc3e
00000340: 03dc 4f3e f3dc de3e c27f 26c0 dcda 813f
00000350: 7eab 0cc0 ca9f 463e fca5 fd3e 889b 573e
00000360: 3638 bb3e 55a6 fa3e ac94 853f fade a53e
00000370: 3571 4f3f 7a18 753e 5268 893f 9d25 ee3d
00000380: 6681 d53e 9bb2 b03e 2ce3 4b3e ac90 c53e
00000390: 1a1c 253f 8bcf c83e 79d8 0d3f 9454 163f
000003a0: 6dad 54bf 3c4f 9c3f e82f d23e d907 8a3f
000003b0: a6c7 2a3f 6c10 bd3f 52d3 133f 110f 043f
000003c0: b59a 0b3f 4eef 213f 0362 c5bb 7e79 aa3e
000003d0: 4c9d 443e 5305 423e c234 d23e 8590 c23e
000003e0: 112a f43d 1475 763e a2fe be3e 7339 9f3e
000003f0: 7396 293e 2879 c23e 1b48 943f 9123 65bf
0.7901417 0.21798736 -0.12912078 0.48974016 0.28326368 0.29179072 0.14366741 0.39191353
0.30170408 0.65986043 0.18990615 0.68016446 0.26173583 0.525303 0.89008665 -0.16791101
-0.41317886 1.0561259 0.69238454 0.23783527 0.5195357 0.39712727 0.402217 0.6221053
0.63569975 0.27883917 0.28534657 0.36675125 0.22245634 0.37407216 0.31606752 0.49049842
0.3556904 0.39574203 0.7135192 -0.33554554 0.6020994 -0.055736836 -0.9722988 0.85685736
0.64125997 0.33311665 0.6282561 0.7322503 0.76693326 0.24251203 -0.024373857 -0.11687525
0.34528401 0.5365181 0.3756531 0.4153954 0.2321774 0.6186778 0.7090061 0.4299648
0.46360558 1.2341477 0.64437646 1.5574694 0.46966177 0.19841522 0.6807053 0.670288
0.87914616 0.6152091 0.44549826 -0.2736396 0.45973173 0.18950158 0.4774149 0.5756097
0.3949052 0.58099234 0.48349026 0.41867515 0.50704193 0.43158317 1.6018484 -1.255989
0.7103067 0.12103947 0.5001858 -0.19341005 0.68525964 0.9761598 0.6270348 0.58392954
0.43221545 0.19944237 0.44359016 0.088339135 0.21812397 0.34102103 -0.7512987 0.32369584
0.20768923 0.3614538 0.351062 0.55631346 -0.04564055 3.188694 1.1965002 0.17800182
0.5307322 0.65601194 0.18794388 0.61450493 0.86052567 0.37979713 0.4725595 0.45946652
0.6119623 0.45243314 0.4847931 0.42221397 0.27783903 0.43910104 0.40234175 0.40119085
0.4612266 0.3636398 -0.9926748 -1.2235687 -3.5416925 0.2812777 0.4838073 0.4441641
0.4507192 0.46359822 0.88797945 0.5371613 -0.00825559 0.6582977 -0.19818215 -0.081746146
0.4184748 0.49357656 -0.25228617 0.42243716 0.24114038 0.4533828 0.34095326 0.2753613
-0.18166205 0.059757546 -0.47016853 1.5841267 0.8203954 0.5203503 0.5576754 0.4447969
0.5605241 0.35856396 0.23391232 0.37026894 0.35383525 0.20600867 0.44953987 0.4899338
0.24800222 0.49548388 0.5057275 0.5010558 0.5146589 0.35353258 1.3215998 -4.098044
-0.4640321 0.31153435 0.47994548 0.032463346 0.53942555 0.2983917 0.6642912 0.56264466
0.0051430184 0.2924451 0.2627667 0.14954516 0.45491725 0.19582671 0.24395248 0.4358408
0.3274146 0.4673996 0.6232768 0.23115787 -5.8798876 1.7854004 -0.45209187 0.48169148
0.5225367 0.089741126 0.52717936 0.75257176 0.24558152 0.5122224 0.61972237 0.66350913
0.40331846 0.27543467 0.53616273 0.45924133 0.19754262 0.3677888 0.41373473 0.4938331
0.20298772 0.43527946 -2.6015477 1.0144916 -2.197967 0.19396892 0.495407 0.21055424
0.36566323 0.48955026 1.0435996 0.3239668 0.81032115 0.23935118 1.0734961 0.11628268
0.41700286 0.34511265 0.19910878 0.38586938 0.64496005 0.39220843 0.55408436 0.58722806
-0.83077127 1.221168 0.41052175 1.0783645 0.6671089 1.4770637 0.57744324 0.5158549
0.5453294 0.63255775 -0.006023647 0.33295816 0.19200629 0.18947344 0.41055876 0.38000885
0.11922086 0.240681 0.37303644 0.31098518 0.16561298 0.3798306 1.1584505 -0.89507395

feature_layer.0.bias f4 [256]
00000000: faa5 363f af6f 353f 3084 fe3e c4aa 083f
00000010: f049 783e f933 eb3e 04c3 c93e dd0d 003f
00000020: e31f f23e f564 b23e 97aa 2c3f 46f7 963e
00000030: 338a 123f 4e58 a43e 037e f43e 4f62 0a3f
00000040: 5f09 9a3e 9ded 463f f255 0b3f 4248 253f
00000050: e411 053f 1918 2f3f e636 383f 035f 173f
00000060: f2e6 383f ca67 ea3e 0939 513e ea74 f43e
00000070: b766 933e 3cba 013f c149 db3e 03c0 e13e
00000080: fe54 da3e 1c44 263f a2b1 263f fe0f 123f
00000090: a32c c23e 7d1e 0f3f 7013 313f c921 2c3f
000000a0: b657 543f 9c6c fd3e 659d 493f 316a f53e
000000b0: 61a2 cf3e 3213 fb3e aa52 e03e c237 e43e
000000c0: fabb 123f ea53 193f fa54 113f 0bde 063f
000000d0: 3c09 8f3e 334f ef3e dc87 f83e fcc7 a13e
000000e0: f38b 133f 9da5 dd3e f111 f63e 427f ed3e
000000f0: a2c8 113f 5017 f73e 3ec5 e33e 904d 103f
00000100: f5c4 783e 22ee 4d3f 95de 9d3e e862 873e
00000110: a232 bf3e 026f 3a3f 17ec df3e 5871 de3e
00000120: 82a7 293f 5f06 d13e 9297 343f 2dc5 113f
00000130: ac47 cd3e 51f4 0d3f 8ddd e03e 3f50 ba3e
00000140: 4980 543e cb86 de3e 3779 fe3e 7bfe 1a3f
00000150: 4441 013f abbd 163f 1b43 1e3f 8d94 fe3e
00000160: 863b 893e 7b3a 993e aee1 f83e a3f5 e23e
00000170: 0cc2 e03e 18f7 1d3f 246f 203f e068 0f3f
00000180: aed6 c53e 761e 053f 410b 903e b03e 323f
00000190: 8ada ef3e 7d49 dd3e bc75 da3e 573d 083f
000001a0: 0d4b 113f 2f36 ee3e a869 8b3e e940 353f
000001b0: 5b06 523f 278c 673e 6d8b 973e 713e 033f
000001c0: eff5 d13e 1657 013f 0539 e43e 82f4 d13e
000001d0: c14f e73e fb03 ae3e 9315 3a3f bbb5 063f
000001e0: 8cb5 023f 638e 123f 46ba de3e 63a0 f73e
000001f0: 8a0c fe3e 5005 fd3e 6d3b 393f e141 e73e
00000200: 934f 1e3f 901e 053f 4703 f23e 1989 cb3e
00000210: 8ba5 1f3f 76a0 1e3f 9021 063f 6e48 213f
00000220: 7f4d e23e 8d45 0d3f f469 353f 5aca 863e
00000230: 2203 113f 0620 ec3e d3d0 8c3e d9d6 ee3e
00000240: e211 8d3e 39db ff3e 9fac f03e 40b7 913e
00000250: dd81 b43f 1861 d13e 8126 e23e db07 383f
00000260: ff5b 743e 8605 b73e fb59 d03e 81ec 103f
00000270: 555e aa3e da6f d93e cf2c e13e 1a9f d93e
00000280: 4a69 ec3e ea99 923e a85e 9b3e 4ddf af3e
00000290: 5a1f cf3e a2fd 0d3f 15c3 d83e bdc2 b73e
000002a0: de3e e03e cb4c fb3e 3dc8 7e3e 6268 ee3e
000002b0: ce95 073f 7cc7 373f 9ac0 e93e a3fe 503e
000002c0: c84a d83e e9de df3e 9122 043f cff7 a73e
000002d0: 7cf9 113f e391 0e3f ea0c 113f adde b73e
000002e0: 44b2 883e a8b2 e53e 84b9 083f c1a9 bc3e
000002f0: 6df8 303f 9d3f 323f 72db c23e 967c dc3e
00000300: b2ff f63e aa25 133f bc2d 083f e89c cc3e
00000310: 0095 4d3e ca20 b93e 8db6 0a3f a422 d83e
00000320: d16d f23e c2d1 db3e a3b3 c93e 4579 a23e
00000330: bda5 c03e ac7b a53e 7093 233f b694 183f
00000340: cb7e 143f f1c9 443f 6e9e 303e 9ac9 813e
00000350: 8530 503e 66ae 073f 2404 f73e 931f 8e3e
00000360: fe20 183f 4ec1 153f 0006 083f bb74 283f
00000370: c14e fa3e 4fd5 0e3f c33a 463f 3dda 113f
00000380: f9c0 f03e fd75 193f 6a09 3b3f 5d9b c93e
00000390: e3ea da3e 5723 2d3f d4cd 0f3f d613 db3e
000003a0: 1b3a 043f 6595 083f b9ad e53e 5ee1 d63e
000003b0: c8e7 b03e 53ea 293f 070c e63e 9850 e63e
000003c0: f30e 1c3f 7c44 013f 47b8 a43e dcfd 1b3e
000003d0: e37a 8d3e 9087 103f 42b7 0d3f 3e84 0e3f
000003e0: 50fe 3d3f 48ec a23e a7a5 063f bd40 ec3e
000003f0: 6988 f13e db89 2b3f e1b8 413f e27f 3e3f
0.7134701 0.7087354 0.49710226 0.5338557 0.24246955 0.4593809 0.39406598 0.50021154
0.47289953 0.3484265 0.674478 0.2948553 0.57242125 0.3209862 0.4775239 0.54056257
0.30085275 0.7770632 0.5442802 0.6456338 0.51980424 0.68396145 0.7195877 0.5912935
0.72227395 0.4578231 0.20431913 0.47745448 0.28789303 0.50674796 0.42829707 0.44091806
0.4264297 0.64947677 0.65114796 0.5705565 0.3792468 0.55905896 0.69170284 0.6723905
0.82946336 0.49496925 0.7875579 0.4793258 0.40553573 0.49038082 0.43813068 0.4457379
0.5731808 0.5989367 0.5677029 0.5268256 0.27936733 0.46740112 0.48541152 0.31597888
0.5763542 0.43290415 0.48060563 0.46386153 0.56946766 0.48259974 0.4448642 0.5636835
0.24293883 0.80441487 0.3083388 0.26442647 0.37343317 0.72825634 0.4373481 0.4344585
0.6627122 0.40825173 0.7054378 0.5694149 0.40093744 0.5545092 0.4391903 0.36389348
0.20752062 0.43462214 0.49701855 0.60544556 0.5049021 0.5888316 0.61821145 0.4972271
0.26803225 0.2992743 0.4860968 0.4432803 0.43898046 0.6170516 0.6266959 0.560194
0.3864035 0.51999605 0.28133586 0.69626904 0.4684642 0.4322013 0.4266795 0.532186
0.56755143 0.46525714 0.27229047 0.7080217 0.8204095 0.22612058 0.2959856 0.51267153
0.41007945 0.5052351 0.44574752 0.41006857 0.45178035 0.33987412 0.7268917 0.5262105
0.5105827 0.57248515 0.4350149 0.48364553 0.49618942 0.49418116 0.723563 0.4516745
0.6184017 0.5199976 0.47268125 0.39753035 0.62361974 0.61963594 0.5239496 0.63001144
0.4419975 0.5518425 0.70864797 0.26326257 0.56645405 0.46118182 0.2750307 0.4664829
0.27552706 0.4997194 0.470067 0.2846012 1.4102131 0.4089439 0.4417 0.71886986
0.23863219 0.35746402 0.4069365 0.56610876 0.33275095 0.42468148 0.439795 0.42504197
0.4617408 0.28633052 0.30345654 0.34350052 0.40453607 0.5546514 0.42336336 0.3589076
0.43797964 0.49082026 0.24881072 0.46564013 0.5296296 0.71788764 0.45654756 0.20409636
0.42244554 0.43724754 0.51615244 0.3280625 0.5702131 0.55691355 0.5666033 0.35912076
0.26698506 0.44862866 0.53408074 0.36848262 0.6912907 0.69628316 0.38058048 0.43063802
0.48241955 0.57479346 0.53194785 0.3996346 0.2007637 0.3615783 0.541848 0.4221393
0.47349408 0.4293347 0.39394864 0.31733146 0.37626448 0.32320917 0.63896847 0.59601915
0.5800597 0.7687064 0.17247936 0.25349122 0.20331009 0.53000486 0.48245347 0.27758464
0.5942534 0.58498085 0.53134155 0.65803117 0.4888821 0.55794233 0.77433413 0.5697363
0.47022226 0.5994566 0.7306124 0.39376345 0.4275733 0.6763205 0.56173444 0.4278857
0.5165116 0.5335296 0.44859102 0.41968817 0.34551835 0.66373175 0.4493105 0.44983363
0.6096031 0.50495124 0.32171842 0.15233558 0.27632818 0.5645685 0.55357754 0.55670536
0.74216175 0.31820893 0.52596515 0.4614314 0.47174385 0.67007226 0.7567273 0.74413884

feature_layer.1.weight f4 [256]
00000000: ccf6 d73f 961e 1540 0daa f73e 4eaa 2a3f
00000010: 9293 bd3f ab44 6040 7cb3 0c3f ece2 0b40
00000020: 6956 ea3f 434a 1e40 4f58 053f af64 993f
00000030: a995 203f 8d41 9c3f 2ee4 0e40 a5f1 203f
00000040: 1d44 b03f 639f cc3e 58e4 853f feaf 0e3f
00000050: cec4 0340 a737 f23e 0684 f33f ca04 993f
00000060: d844 613f dac1 863f 4540 983f d717 2740
00000070: 0cb9 b73f 2fb6 0a3f be9c d93f 233d 703f
00000080: b484 9a40 0731 cb3f 7d28 403f 7ba9 aa3f
00000090: 48f7 bd3f c979 0440 f6b3 ad3f 9275 783f
000000a0: a8d3 ca3e 3c8b 0740 37dc e63f 2722 413f
000000b0: 033b 153f 5143 153f 25a0 e43f f42e 7440
000000c0: fdd7 5b3f 7de9 063f b724 c43f e2c0 e83f
000000d0: b60d 903f 5c87 163f 854c 4e40 30c6 fa3f
000000e0: 2ad6 263f 9921 ae3f 8bf5 853f 1963 d33f
000000f0: f0f0 d63e 92ff a73f c7ba f43e dcdb 293f
00000100: 4d21 633f 0e36 bd3f 193f cc3f 1292 2c3f
00000110: f6ef df3f 9bbe 1a40 885f 0940 5dae 5b3f
00000120: 3a63 633f 12f6 6340 3996 663f d700 963f
00000130: 13ce 293f 5377 393f 8a0c 833f 08d4 cb3f
00000140: 645c d73f bb68 1c3f cf23 843f 1674 603f
00000150: e4bc 343f 5159 643f 5b8f 993f c140 df3f
00000160: f89a 303f d41a 2a40 1d55 3940 e877 cc3f
00000170: 6605 2a3f 9e75 b23e ae8b 2c3f 4f56 ce3f
00000180: 9a28 d63f 0a4c 7b3f bd7a 543f ae08 d83e
00000190: 3f5e 613f fbc4 2140 e90e 4d3f d81f 0d3f
000001a0: 9649 913f da0f 2f3f 775f f73f b0cb 4940
000001b0: c7ff df3f 3763 a13f e7ec be3f 7623 313f
000001c0: df1d 683f 2a9a 0a3f 0386 7b3f c90e e03f
000001d0: 4466 303f 0397 4d3f 6d86 0d40 3ead 9d3f
000001e0: fb27 c13f dc92 c83e 279f 763f d25c 0f3f
000001f0: fca0 1a3f 87ea a53f 8385 f43e 644e 9440
00000200: 6989 ce3e 8ba9 0640 0320 6b3f 75de a73f
00000210: fdf3 4f3f f5e1 0140 5f32 be3f b8ff 693f
00000220: b9f0 f73f 0247 3d3f e341 9c3f 3b27 893f
00000230: 11b3 523f 7937 6140 deec 763f ac5b 943f
00000240: 677a 613f ee31 3b3f 000c 343f fca8 b03f
00000250: c888 a63d 9c28 133f ce57 5440 2597 d03e
00000260: dbd7 bd3f 6eed cb3f 6428 7a40 2826 033f
00000270: 846d b23f 1352 ab3f d6be 8b40 dbdb 9540
00000280: 451c 763f 0ab1 1f40 d41a 0e40 e8cd 6e3f
00000290: 4ba2 293f 3ba9 6c3f 2190 733f 27d8 963f
000002a0: 67e3 df3f a6b8 663f 33c5 403f f253 5540
000002b0: 5c19 313f 789b 073f 6449 6d3f 4c62 0e40
000002c0: b548 463f 1957 053f 0656 a73f 1bff 2c40
000002d0: 5736 763e 4a94 993f 1758 883f bbbe 1240
000002e0: 3a98 af3f b447 473f 7b4e 723f 214c e23f
000002f0: 75aa 793f 13d6 763f f257 753f fb93 a73f
00000300: b5b2 523f d728 ab3f 8ca8 5d40 6c3e 4b40
00000310: 02ab a93f 2fb5 543f 7df7 0540 731d a53f
00000320: 235d dd3f 0dbc 703f 853e 023f 1174 923f
00000330: 5da0 9b3f 9acf 443f 519e 1f3f 21bb a33f
00000340: 3c82 af3f 4c32 7140 7d35 ef3f 168a 563f
00000350: 9431 963f 7aba 093f 6146 f03f 2a2a 1540
00000360: 3cce aa3e e617 013f 47ec 983f 3f66 7b3f
00000370: 0f2e b53f dcf7 b83f b47f 0a40 58ab 2a3f
00000380: 80d6 873f b441 9c3f 60cc bc3e 865d d03f
00000390: 2fc8 c83f 1f26 903f 6883 ee3e 03b6 6a3f
000003a0: 8632 fe3e e4b9 093f 4440 a83f 49f0 8e40
000003b0: 6ac2 353f 121a 683f 4e4f 9b40 f9d6 173f
000003c0: 0c0e 033f 7c44 543f da21 2b3f bf74 923f
000003d0: 7b5c 2e40 f2b4 1440 6faf bd3f dcef e53f
000003e0: 94ab 683f d63c d43f 7ac1 4f3f 67a8 613f
000003f0: 2e3f 7c3f 034f e33f d027 f13e a7c2 7340
1.6872191 2.3299918 0.48371926 0.66666114 1.481066 3.5041912 0.5496137 2.1857252
1.830762 2.4732826 0.52087873 1.1983851 0.62728363 1.2207505 2.232677 0.6286872
1.3770787 0.39965352 1.046031 0.5573729 2.058887 0.47308084 1.9024665 1.1954587
0.8799567 1.0527909 1.1894614 2.61083 1.4353347 0.5418424 1.7000959 0.9384329
4.828699 1.5874337 0.7506178 1.3332971 1.4841089 2.0699332 1.3570545 0.970544
0.39614606 2.1178732 1.8035954 0.7544274 0.5829317 0.5830584 1.7861372 3.8153658
0.85876447 0.52700025 1.5323704 1.8183863 1.1254184 0.5880029 3.2234204 1.9591732
0.6517054 1.3604003 1.0465559 1.6514617 0.41980696 1.3124869 0.4779875 0.66351104
0.8872269 1.4782121 1.5956756 0.67410386 1.7495105 2.4178836 2.1464558 0.8581293
0.8882328 3.561894 0.9007297 1.1719006 0.6633007 0.724477 1.0238202 1.5924082
1.682507 0.61097306 1.0323428 0.87677133 0.70600724 0.89198786 1.1996874 1.7441636
0.68986464 2.6578875 2.89582 1.5974092 0.6641449 0.3485536 0.67400634 1.6120089
1.6731141 0.981629 0.82999784 0.42194122 0.88034433 2.5276477 0.80100876 0.55126715
1.1350582 0.6838356 1.9326009 3.153057 1.7499932 1.2608403 1.4916047 0.69194734
0.9067058 0.54141486 0.9825136 1.7504512 0.68906045 0.8030855 2.2113297 1.2318494
1.5090326 0.39174545 0.963366 0.5600101 0.6040189 1.2962197 0.4775811 4.634569
0.4033921 2.104098 0.9184572 1.3114763 0.8123167 2.0294163 1.4859122 0.9140582
1.9370338 0.73936474 1.2207607 1.0715097 0.82304484 3.5190108 0.9645518 1.1590476
0.88077396 0.7312306 0.7033081 1.380157 0.08131558 0.5748384 3.3178592 0.40740314
1.4831499 1.5931833 3.9087152 0.51230097 1.3939672 1.3384422 4.3670454 4.683088
0.96136886 2.4951806 2.2203875 0.9328294 0.66263264 0.92445725 0.951418 1.1784714
1.7491273 0.901255 0.753009 3.3332486 0.6917932 0.529716 0.9269011 2.2247496
0.7745469 0.52086025 1.3073127 2.7030704 0.24044167 1.1998379 1.0651883 2.2928913
1.3718331 0.77843785 0.94651 1.7679483 0.9752572 0.964204 0.9583732 1.3092035
0.82303935 1.3371838 3.4634123 3.175685 1.3255312 0.83088964 2.0932305 1.2899612
1.7294048 0.9403694 0.5087665 1.1441671 1.2158314 0.76879275 0.62350947 1.2791482
1.3711619 3.7686949 1.8688198 0.8380445 1.173388 0.53800166 1.8771478 2.3306985
0.3336047 0.5042709 1.1947106 0.9820289 1.4154681 1.4450641 2.1640444 0.666677
1.0612335 1.2207551 0.36874676 1.6278541 1.5686091 1.1261634 0.4658463 0.9168398
0.4964792 0.5379927 1.3144612 4.4668317 0.7099978 0.9066478 4.8534307 0.593124
0.5119331 0.82917 0.6684853 1.1441878 2.7243946 2.323544 1.4819163 1.7963824
0.9088681 1.6581066 0.81154597 0.88147587 0.98533905 1.7758487 0.47100687 3.8087556

feature_layer.1.bias f4 [256]
00000000: b878 9d3d e25d 7a3d c31b 41bf c66f 11bf
00000010: d987 7abe 0a9f 843e 1c2d 87be 116c 2ebd
00000020: 23ec 30be e3b0 583d 663a 12bf 6caf 6f3e
00000030: 432a ddbe e5b7 5bbe a8d9 8abd 3aae bebe
00000040: ed99 05bd 7898 0bbf d0a0 04be b361 2abf
00000050: ed1e 9fbb 1240 59bf 2474 fd3e 1bfe 87be
00000060: 7892 cbbe 0259 f4be f67a 55bd 15b9 8c3e
00000070: 2a9a 30bd abfd 0bbf d839 94bd 9f39 b0be
00000080: ca8b 8e3e ffbb 5c3e 6408 8dbe 0b10 ab3d
00000090: 207f 05be d173 bcbd 84da 0ebe acda 2cbf
000000a0: 0a48 56bf 3e25 fd3c 6634 723e 9f11 79be
000000b0: 3584 61be 8e5d 2ebf 8ebc 173e 7a16 ec3d
000000c0: 64d2 cdbe 792a 20bf b50b b9bd 7391 b63b
000000d0: 6b93 46be df6f f3be 092a aa3e 95a6 e33e
000000e0: 6b63 d2be dcc5 42bc 31aa 33be 1dd6 96bd
000000f0: 67a0 05bf 3dbd 2b3d 4ebf edbe 69e7 d8be
00000100: 1a4a 8dbe ecb8 903d ab0b 9a3c 39d3 85bd
00000110: f02e 63bd 830c 8e3e 1c07 1f3e bddc 04bf
00000120: 6c27 3ebe 7ec1 ad3e 9200 3bbe 84ab 5f3e
00000130: 2c5c 7abe d4fd 95be f4ce 59be dc8a b0bd
00000140: 6487 a03d fd15 03bf 349b 25be 0c34 0fbe
00000150: 79bc 00bf ea91 98be e288 17be 44af d53c
00000160: decd aabe 9cf1 113e 8dd7 833e f656 c33c
00000170: b3ff 00bf 725d 36bf 56ac 9abe 92de 0b3d
00000180: 72cd 133e 6ca8 a3be 1d4b a5be 40df 2bbf
00000190: 6cda f9be 8109 4f3e fa4f b5be f7a1 33bf
000001a0: de47 2bbe 6974 b4be d01d 193d 2d95 d83e
000001b0: bb70 623d 6f25 e2bd c332 10bb 9d7d eebe
000001c0: be79 f0be e6d1 1cbf df87 81be 87f3 b5bc
000001d0: 3507 eebe 688f 7cbe 0794 a63e bc51 46be
000001e0: deda efbd a9d2 40bf eb29 52be 1906 1bbf
000001f0: 75b3 06bf 2f47 9ebd 645b 51bf 1c9b 7b3e
00000200: 681f 13bf b57a 963e dd02 63be bdc7 6f3e
00000210: 6073 a8bd abbf 62bd e066 04bb e0a6 93be
00000220: 1f2e ca3d 6188 1fbf 2e2a 3bbe d381 1abe
00000230: b6a3 b9be 1c99 573e a5ec 07be 759d 9bbe
00000240: 84a7 00bf 18c0 89be 1a81 99be fcfb 7abe
00000250: 2c7e 70bf 27e2 89be 5577 19bd fdd1 1dbf
00000260: 46fe 17be 0a57 76bd 8765 713e 69fe ffbe
00000270: 616e 0a3c 74de 873e e75c df3c efa4 3c3e
00000280: 156a 45be 02f5 723e 1d70 75bc 3ba5 63be
00000290: 6b27 8bbe 5ff2 83be 5c35 94be 7d81 10be
000002a0: 73ae 373e 73e1 2bbd 180d 3abe afed c43e
000002b0: 4a33 13bf cf05 16bf 193f fabe 1368 c43d
000002c0: 1d92 a2be 6fb0 c7be e890 28bd 1531 ee3e
000002d0: 41b1 15bf 18b7 d2bd c302 6abe 90ee 043e
000002e0: 6793 61be 6e8d 9ebe 7bb4 3abe ed22 b23c
000002f0: ec7d febe 1a71 d3bd 9d2e d0be ad13 963e
00000300: 3334 f5be a5fa ebbd 54cd 9d3e f950 a33e
00000310: 728b 783e 2876 e2be 6b18 3bbe 3dea 27be
00000320: 4e33 febd e74f 8dbe 7075 dabe e5df b2bb
00000330: 2cd0 c4bd b461 19bf 7329 f0be 0ba1 b1be
00000340: d88b e63a b462 ec3e 8dd7 673e 78f7 9bbe
00000350: 7a6e f9bd 9886 e4be 285d 35be f5c6 5e3e
00000360: 068b 17bf 505c 16bf 4712 e0bd e804 f53d
00000370: 77f7 60be 8c9e 84bd e524 913d 9898 91be
00000380: 25a5 84be ed69 2abe 2ee5 23bf ab2e 6b3e
00000390: d0d9 ce3d 0561 a7be 0618 debe a9ee aebe
000003a0: 8623 313c 82ee 06bf 43ac 85bc beae 903e
000003b0: 9471 97be b8db 64be 2064 c13e 8ca1 dcbe
000003c0: e728 1ebf e57b 13be bf65 a3be a0ee 56be
000003d0: 438e 873e 9a66 47bd 20f0 a7be eb5c 32be
000003e0: 9a07 75be 682c f8ba 9208 8fbe f6a6 95be
000003f0: a9fe afbe 14aa 673e 8a2c 1fbf 480d 063f
0.07689041 0.06112469 -0.75432986 -0.5681118 -0.24465884 0.25902587 -0.26401603 -0.04258353
-0.17277579 0.052903067 -0.5712036 0.23406762 -0.43196306 -0.21456869 -0.06779796 -0.372423
-0.0326175 -0.54529524 -0.1295197 -0.6655533 -0.0048559816 -0.8486339 0.4950267 -0.26561055
-0.39760184 -0.47724158 -0.052119218 0.27484956 -0.043115772 -0.5468394 -0.07237595 -0.3441896
0.27841026 0.2155609 -0.27545464 0.08352669 -0.13036776 -0.09201778 -0.13950545 -0.67521167
-0.8370367 0.030901548 0.23652801 -0.24323128 -0.22023089 -0.68111503 0.14818022 0.115277246
-0.40199578 -0.6256481 -0.09035436 0.005571538 -0.19392173 -0.47546288 0.33235195 0.4446303
-0.41091475 -0.011887994 -0.17545392 -0.073650576 -0.5219788 0.04192852 -0.46435016 -0.42364052
-0.27595598 0.07066521 0.018804392 -0.06534428 -0.055464685 0.2774392 0.15530056 -0.5189932
-0.18569726 0.33936685 -0.18261936 0.21842772 -0.24449223 -0.29295218 -0.21270353 -0.08620235
0.07838324 -0.51205426 -0.16172487 -0.13984698 -0.50287586 -0.29798824 -0.1479831 0.02608455
-0.3336019 0.14252323 0.2575039 0.023845177 -0.50390166 -0.71236336 -0.30209607 0.034147806
0.1443384 -0.31964433 -0.3228387 -0.6713753 -0.48799455 0.20218469 -0.3541258 -0.70169014
-0.16726634 -0.35245064 0.037381947 0.42301312 0.05528329 -0.11042296 -0.0022002913 -0.4658021
-0.46967882 -0.6125778 -0.25298974 -0.02221085 -0.46489874 -0.2466408 0.3253481 -0.19367117
-0.117116675 -0.7532144 -0.20523803 -0.6055618 -0.5261758 -0.07728421 -0.81780076 0.24570888
-0.574698 0.29390493 -0.22169061 0.23416038 -0.08225131 -0.05535857 -0.002020292 -0.28838253
0.09872078 -0.6231747 -0.18277809 -0.15088587 -0.36257714 0.210545 -0.13273866 -0.30393568
-0.5025561 -0.26904368 -0.2998131 -0.24510187 -0.93942523 -0.26930353 -0.03746732 -0.6164854
-0.14843091 -0.0601416 0.23573886 -0.49998787 0.008449168 0.26536906 0.027265979 0.18422292
-0.19278748 0.23726276 -0.014980343 -0.22230999 -0.2717851 -0.25770852 -0.2894696 -0.14111896
0.17937641 -0.041963052 -0.18169057 0.38462588 -0.57500136 -0.58602613 -0.48876265 0.09590163
-0.317521 -0.39001796 -0.04115382 0.46521822 -0.58473593 -0.102888286 -0.22852616 0.1298163
-0.22028886 -0.30967277 -0.1823291 0.02174517 -0.49705446 -0.10324307 -0.40660563 0.29311886
-0.47891387 -0.11522416 0.30820715 0.31897715 0.24271944 -0.4423077 -0.18271033 -0.16397949
-0.12412129 -0.27600023 -0.42667723 -0.005458819 -0.09610018 -0.5991471 -0.46906623 -0.3469318
0.0017589284 0.46169055 0.2264082 -0.3046224 -0.12179275 -0.44633937 -0.17711318 0.21755584
-0.5919651 -0.5873461 -0.10940986 0.119638264 -0.219694 -0.06475553 0.07087115 -0.28436732
-0.25907245 -0.1664197 -0.64021575 0.22967021 0.10100138 -0.32691208 -0.43377703 -0.34166458
0.010811692 -0.52707684 -0.016317492 0.28258318 -0.2957884 -0.22349441 0.37771702 -0.43092
-0.6178116 -0.14402731 -0.31913564 -0.20989466 0.26475725 -0.048681833 -0.32800388 -0.17418258
-0.23928681 -0.0018934133 -0.27936226 -0.29228944 -0.34373978 0.22623473 -0.62177336 0.52364016

feature_layer.4.weight f4 [128, 256]
00000000: 77fe 083f c0bd 873e 5660 7a3e 6bd3 c43d
00000010: ead2 d33e 375e 9fbf 5573 81bf 555a d73e
00000020: 1c9a ff3e fb91 05bf 3fc0 aebe ad07 133f
00000030: 7022 39be ab44 44bf 1d33 76be cdd0 37bf
00000040: e197 6f3f a1a0 9bbe 5e81 ea3e 1db3 fc3e
00000050: d5ec b03e 2947 f33e 580c 183f c664 093f
00000060: a1a2 86be 1992 5c3f cd23 453e 8d83 0f3f
00000070: fa74 793c 3b0a e43e 7932 ce3e 921f 1ebf
00000080: 4db2 58be 7949 ee3e 9c9e 853d 8f6d fa3e
00000090: 8a81 f63e 6fb6 9c3e c749 243f 7499 1b3f
000000a0: b344 1fbd 6b45 34bf 5ec1 b13e 3da5 2fbd
000000b0: f1bc d1be a7aa 5c3e 9d42 95bf 7b86 55bf
000000c0: b402 933e 4d8a c73e e65d a4be 2d00 223f
000000d0: 3b2c 023e 73e3 403e f7fa 30bf ea78 803e
000000e0: 2cb8 863e 19b5 403e 4552 14be 841a 13be
000000f0: 27ed 81be d5ad 80bf caf6 913e 9acb 13be
00000100: 5bf9 a73d 3ba1 793e 71df d93e 5064 8dbe
00000110: 90c1 4c3e 228b 483f 20b5 e63e 8f3b a13e
00000120: 15d8 8a3e 6040 013f 1fad 5b3f 98af cd3e
00000130: df36 5b3d d2e8 8c3e 6342 293e e312 9d3e
00000140: f674 793d fb69 873e f5de 783e 348b 833e
00000150: 739f b5bf bcc3 de3e c3e5 4b3e b0b2 ff3d
00000160: 58c8 8b3d f1c3 5e3e 71b2 1dbf a2d4 ee3e
00000170: 712b f03e 23d5 3d3e d470 be3c 84ac de3e
00000180: b5ee f53e 7103 54be e3f2 cc3e 55bf 0e3f
00000190: 634a bebb d3b3 ec3f c8b2 93bf 386b 973e
000001a0: 3767 d03e fb2d 953e 2e85 103f 97dd 843e
000001b0: b303 0e3e 5539 d23d c2a1 86bf 6358 8b3e
000001c0: ce1a 3c3e a5d5 b03e 0b82 a03d 0fc3 073f
000001d0: fc8f 0d3f b9c8 063e 4b8a 0b3e fbb6 59be
000001e0: 5944 47bf c0b3 f53e c943 803e 41e7 36bf
000001f0: f1e9 e23d 04a2 1b3e 9ef6 943e d3a8 163c
00000200: fdf8 893e 636b 8b3e ce85 f13e 1598 9c3e
00000210: 8f93 06bc e568 903e 2bfc 923e 5b57 ea3e
00000220: 02b0 f43e 51f7 ef3e 79aa 023f 02c6 6e3e
00000230: 4df9 363e 4017 26bf e761 09bf 3cb6 bf3e
00000240: 3770 11be bebb cfbe dcf1 c73e e742 93be
00000250: b3ba e6bd 9bef 82bc 51e7 11bf 4828 f43e
00000260: d9a6 843e d2e6 0a3f f8ad 5dbf feab 8e3e
00000270: 8ad6 003f 3788 563e fe06 96be b8f0 bebe
00000280: 4a67 dfbe 9e65 d9be 335f 533e d660 9ebf
00000290: 5371 ba3d cd30 d3bd 014b e2bd 44bc 103f
000002a0: be33 c13e 982f c53e 4258 73bf a573 39bf
000002b0: 5950 753e c9ea 5b3e 7d4a 94bf 69da babd
000002c0: bb8b b73e e2a0 57bd ed57 053e 70d1 043f
000002d0: 99c2 923e fdd4 ef3e 4b7d 63bc b534 ef3f
000002e0: ad18 793e c8d7 30bf 4653 5abd 554d 183f
000002f0: 3563 243e 7653 dd3e 89f0 9ebe e071 b43e
00000300: 69c2 a23e 66a0 1e3f b2c3 38bf fd88 9c3c
00000310: 349d 7dbf 2506 f83e 3d15 493f ee7c a83e
00000320: 8c14 0d3f f7f0 073f 109e 2ebf 9a0b 22be
00000330: 590e 0c3f 96fc 023f 210e d93e 3075 e3bd
00000340: 5a78 3f3f cc87 843f 4f3b 51bf 2407 973e
00000350: c590 823e e36a e33e b9e8 503e 02f7 4b3e
00000360: 4383 3b3b 39b3 20bf 0846 6fbe d60b a33c
00000370: eee3 a33e 32ac 75be 7bdc b73e 4572 af3c
00000380: 772c 32be 6921 ea3e 7122 bb3e e781 023f
00000390: 7947 d23e 3a01 373e 6d69 b53e c317 aabe
000003a0: b685 0a3f a42e fb3e bd1a 96bf 2e4f b6be
000003b0: b0d8 37be ab1f c73e 4ace 62be a07d 46bd
000003c0: 36da ce3e 968a 093e 842a a23e 526f d73e
000003d0: 80fe 8fbe 8dbd a83e e55c cc3d ae72 1d3f
000003e0: 7b64 db3e 1181 873d 1440 733e b95b 103f
000003f0: e4d6 c63e 230f 823e 7540 be3d 2e34 d23e
0.5351328 0.26511955 0.24450812 0.09610637 0.41371852 -1.2450627 -1.0113322 0.42061105
0.49922264 -0.52175874 -0.34131047 0.5743359 -0.18079543 -0.7666728 -0.24042936 -0.7180298
0.93591124 -0.30395988 0.45801824 0.49355403 0.34555689 0.47515228 0.59393835 0.53669393
-0.2629595 0.8616043 0.19251938 0.56060106 0.015225643 0.44539055 0.40272883 -0.6176692
-0.21161766 0.4654043 0.06524393 0.48911712 0.48145705 0.30607936 0.64175075 0.60781026
-0.038883876 -0.70418423 0.3471784 -0.042882193 -0.40964463 0.21549474 -1.1660954 -0.83408326
0.28713 0.38972703 -0.3210289 0.6328152 0.12712185 0.18836765 -0.6913294 0.2509225
0.26312387 0.18819083 -0.14484508 -0.14365584 -0.25376245 -1.0053049 0.28508598 -0.14433137
0.08201858 0.24377911 0.42553285 -0.27615595 0.19995713 0.783373 0.45060062 0.31490752
0.27117983 0.50488853 0.85811037 0.4017303 0.053519126 0.27521378 0.16529231 0.30678472
0.06090256 0.26448044 0.24303801 0.2569214 -1.4189285 0.43508708 0.19911866 0.12485254
0.06825322 0.21754433 -0.61600405 0.466466 0.46908143 0.18538336 0.02324716 0.43490994
0.48033682 -0.20704438 0.40029058 0.557607 -0.0058072074 1.8492378 -1.1538935 0.2957399
0.40703747 0.29136643 0.56453216 0.2595031 0.13868599 0.102648415 -1.0518115 0.2721587
0.183696 0.34537998 0.07837304 0.5303201 0.5529783 0.13162507 0.13626973 -0.21261208
-0.77838665 0.479887 0.25051716 -0.71446615 0.11079777 0.15198523 0.29094404 0.009195524
0.26947775 0.27230367 0.47172397 0.3058478 -0.008213892 0.28205028 0.28708014 0.45769772
0.47790533 0.46868375 0.5104137 0.23317721 0.17868538 -0.64879227 -0.5366501 0.3744372
-0.14202963 -0.40572923 0.39051712 -0.2876198 -0.11266079 -0.015983393 -0.56993586 0.47686982
0.25908545 0.54258454 -0.8659358 0.27865595 0.5032736 0.209504 -0.2930221 -0.3729303
-0.4363349 -0.4246034 0.20641784 -1.2373302 0.09103646 -0.103120424 -0.11049462 0.5653727
0.3773479 0.38512874 -0.95056546 -0.72442085 0.23956431 0.21476282 -1.1585232 -0.0912369
0.35848793 -0.052643664 0.13021822 0.51882076 0.2866409 0.46842185 -0.013884853 1.868796
0.2432582 -0.69079256 -0.053302072 0.59493 0.1605347 0.43227738 -0.3104289 0.3524313
0.31788948 0.619635 -0.7217361 0.01910829 -0.99068 0.48442188 0.7854803 0.32907814
0.5510948 0.5310206 -0.68209934 -0.15824738 0.5470939 0.51166666 0.42393592 -0.11106336
0.74793017 1.0353942 -0.8173112 0.29497635 0.25501075 0.44417486 0.20401277 0.19918445
0.0028612174 -0.6277347 -0.23366559 0.019903105 0.32009834 -0.23991469 0.359104 0.021416793
-0.17399774 0.45728615 0.36549714 0.50979465 0.41070154 0.17871562 0.35431996 -0.33221254
0.54110277 0.4905902 -1.172691 -0.35607284 -0.17953753 0.38891348 -0.22149006 -0.04845965
0.40400857 0.13431773 0.31673062 0.42077118 -0.28123856 0.32957116 0.09978656 0.6150311
0.42850098 0.06616414 0.23754913 0.5638996 0.38835824 0.25402173 0.09289638 0.41055435

feature_layer.4.bias f4 [128]
00000000: 8459 ffbd f357 e33e debb 713e 46f0 c43e
00000010: 7ab8 d13e a9dd 0c3f fe78 c63e c4e2 0bbf
00000020: 4960 0a3f 03f4 fe3e 4c43 1fbf 3c68 803e
00000030: 6b22 ebbe b59c e6bd 3536 7ebf feb1 52bd
00000040: c728 af3e d08e f73e 2741 493e 6b4a d6bd
00000050: bd8a 9d3e 6756 363f 82bc 3c3d abfc 1cbf
00000060: 04b6 093d 0112 7b3e 280b 533e fcf5 85be
00000070: 6178 cf3e 900c 7fbf 6225 343e f93c 293f
00000080: 7cb8 b83e a24c c3bb 4b96 f5be 2831 ff3e
00000090: e691 c13e 6e1b cf3e fc89 493e 8155 efbd
000000a0: 30d3 403e 981a d33e 07d1 a43e 6a31 4cbe
000000b0: d813 803f 90ee 123f cb8e 77be 6e85 793f
000000c0: 4465 d03e 0b8e 6fbd edda 64be ab03 213e
000000d0: c4ee f53d e831 463f 2faa 183f 1359 413f
000000e0: 7a2d 41be e339 47be 3506 07be a95c 8c3e
000000f0: c3d9 98be bd42 f63e 7b5d f83e 89d7 5f3e
00000100: 28e2 263f 93e2 5c3e 231a a73e d43f 713f
00000110: 827d a3bd 222a e03d d8a6 163e 06cc 9d3c
00000120: 70bc 1a3f 9fb4 3bbe 0fae cc3e 74eb 9d3f
00000130: 78ee 9bbe fa3b d43d c0a5 c63e d937 383f
00000140: c373 90be c81a 0c3f 1073 a73e b247 fe3e
00000150: 335f 653f 8ea7 82be b2b6 563f 5a5d adbe
00000160: 2621 083e 770a a93e f2ff b43d 9260 bf3d
00000170: e989 d6be 3f0f bfbe 910e d03e 302d 4b3c
00000180: fb03 7bbe c6a2 cd3e f6a5 c93e bc3b 243f
00000190: 25e7 f73e ed1d c73e 8c25 8e3e 4f08 d5be
000001a0: 8fc0 9d3e d812 173f 285e e93d ee67 393e
000001b0: a84d 443e 6afa 7b3f 450c e23d d94a 30bd
000001c0: e12d b23e 6d18 a9bd 4af1 0a3f f21b 01bf
000001d0: 9d03 c03e 4ba6 a03d 659c f53e c182 1f3e
000001e0: 641a 8a3e e5a1 34bf f7bb 2e3f c226 273f
000001f0: b2fd 37be 8fcf 433f 3caf 933e 2a28 663f
-0.124682456 0.44403037 0.23606822 0.38464564 0.40961057 0.55025727 0.38764185 -0.5464289
0.5405317 0.4979554 -0.6221206 0.25079525 -0.45924696 -0.11260358 -0.99301463 -0.051439278
0.34210798 0.48351145 0.1965376 -0.10463413 0.3076991 0.7122559 0.046078213 -0.6132304
0.03362085 0.24518587 0.20609725 -0.26164234 0.4052153 -0.99628544 0.17592385 0.6610866
0.3607825 -0.005960063 -0.47966227 0.4984219 0.37806624 0.40450615 0.19681543 -0.116862305
0.18830562 0.41231227 0.32190725 -0.19940725 1.0006056 0.5739527 -0.24175565 0.9746922
0.4070226 -0.058485072 -0.22349139 0.15724055 0.120084316 0.774199 0.5963468 0.7552654
-0.18865004 -0.19455676 -0.13185962 0.27414444 -0.2985364 0.48097792 0.4850882 0.21859564
0.6518884 0.21570806 0.32637128 0.9423802 -0.07982923 0.10945536 0.14712083 0.019262325
0.6044378 -0.1833062 0.39976546 1.233748 -0.30455375 0.10363002 0.38798332 0.71960217
-0.2821332 0.54728365 0.32704973 0.49664074 0.8959839 -0.2551846 0.8387252 -0.33860284
0.13293895 0.33015797 0.0883788 0.09344591 -0.41902092 -0.3731632 0.40636113 0.01240091
-0.24513237 0.4016325 0.3938443 0.6415365 0.48418537 0.3889002 0.2776302 -0.416079
0.30810973 0.5901313 0.11394912 0.18106052 0.19170249 0.98428977 0.110374965 -0.04304013
0.34800628 -0.08256612 0.5427443 -0.50433266 0.37502757 0.07844218 0.47970882 0.15577222
0.2697326 -0.7055953 0.6825556 0.65293515 -0.17967871 0.76488584 0.2884463 0.89905035

feature_layer.5.weight f4 [128]
00000000: 4e3d 533f e522 7b3f b399 fc3f 3dc2 293f
00000010: cb26 3c3f a634 403f 45da 2d3f cf89 8c3f
00000020: 9262 4e3f c59c 833f 9911 933f c363 e63f
00000030: 90f9 f03f e223 913f 4877 aa3f 434e b03f
00000040: e858 963f a5e5 2c3f bced 443f cc96 ff3f
00000050: 5b05 0f3f 9eae 453f 1e44 703f e568 0f40
00000060: 6368 c93f f44f 253f a20c 3e3f e0f4 983f
00000070: df7b 373f cfa3 7d3f 074f 663f e93f 183f
00000080: 99fb 443f 8d0b 393f 573c ed3f 2328 223f
00000090: bfc6 6c3f 7c31 8a3f 62b2 3f3f 9d9e 9d3f
000000a0: 958a 663f 8441 163f 8abd c13f d9d0 0240
000000b0: 576d 313f 364b 583f 98b0 b03f dbb5 313f
000000c0: 438f 2e3f 0edb 0c3f 6933 4d3f 99d5 3b3f
000000d0: 9f97 903f 3d18 383f 6699 463f d241 273f
000000e0: 501a 263f 9b06 853f 2f5b 913f 4163 9b3f
000000f0: ba2e 5b3f 7218 383f 2065 0a3f 5a6b 1d3f
00000100: aad0 4d3f 542f 403f b301 5b3f 9973 9b3f
00000110: e48a 273f c967 8b3f 905a a03f 0a53 2d3f
00000120: aa98 9a3f 6361 2b3f 4b23 bc3f 984f 353f
00000130: c5eb 5d3f 727b 823f 1230 933f a347 fb3e
00000140: 3adc a83f 7d98 513f 19d8 153f 56e8 3e3f
00000150: 8652 593f e2b1 a63f 143e 393f 2f8e c03f
00000160: 94c8 7c3f aa02 643f dc73 773f e48f 813f
00000170: f9b7 fc3f 7707 aa3f a183 693f b4be 213f
00000180: b98b 8f3f 7837 463f cb0e 7a3f aa37 7e3f
00000190: d971 cd3f 1e17 ab3f 73f8 b03f 7f5a b73f
000001a0: 1e54 8a3f 7116 1b3f 6569 313f 3c41 bb3f
000001b0: ccac 753f cae0 2e3f 7f1c f73f 0775 d93f
000001c0: 4f37 813f b479 0140 de8a 173f 232d 6d3f
000001d0: 446a 2b3f 3517 953f 6fc1 823f 6090 483f
000001e0: aa9c 4a3f 4be7 fa3f d349 843f 2676 063f
000001f0: 0ade 7a3f dcbf 233f c16a 5d3f 1d20 233f
0.8251542 0.9810012 1.9734405 0.6631201 0.73496693 0.75080335 0.6791118 1.0979556
0.80619156 1.0282217 1.1489745 1.7999195 1.882616 1.1339076 1.3317652 1.3773884
1.1745882 0.6753791 0.76925254 1.9967895 0.55867547 0.7721957 0.9385394 2.2407773
1.5734981 0.64575124 0.74238026 1.194973 0.7167339 0.9907808 0.89964336 0.5947252
0.7694641 0.7228325 1.8534039 0.63342494 0.9249076 1.0796351 0.74881566 1.231403
0.9005521 0.5869372 1.5135968 2.043997 0.69307464 0.8448976 1.3803892 0.69418114
0.6818735 0.5502175 0.8015657 0.733728 1.1296271 0.71911985 0.7757782 0.6533481
0.648839 1.0392641 1.1355952 1.2139665 0.85618174 0.719123 0.54060555 0.6149193
0.8039652 0.75072217 0.8554947 1.2144653 0.65446305 1.0891048 1.2527637 0.6770483
1.2077839 0.66945475 1.469827 0.70824575 0.8668788 1.0193923 1.1499045 0.49078092
1.3192208 0.81873304 0.58532864 0.74573267 0.84891546 1.3023036 0.7236035 1.5043391
0.9874356 0.89066565 0.9666116 1.0122037 1.9743644 1.3283528 0.91216475 0.63181615
1.1214515 0.7742839 0.9767882 0.99303687 1.6050369 1.336643 1.3825821 1.4324492
1.080692 0.6058112 0.69301444 1.4629283 0.9596679 0.6831175 1.9305571 1.6988839
1.0095004 2.0230532 0.5919627 0.92647 0.66959023 1.1647707 1.0215281 0.783453
0.791453 1.9601835 1.0335029 0.5252403 0.97995055 0.6396463 0.8649102 0.63720876

feature_layer.5.bias f4 [128]
00000000: 96f2 0cbf fefe 03bf 74b1 c4be a7bb 2abf
00000010: 12b2 d8be ac6e dbbe 0f73 2dbe 7fd1 85be
00000020: 96cb 19bf 4efd 1bbf b464 bcbe cb26 e7be
00000030: 88a6 56be 8999 c6be 72b2 0cbe 2f17 90bf
00000040: 9522 93be 3caa 37bf 0e6e 08bf 4c34 8dbf
00000050: 535e 25bf 8a61 0dbf 2198 34bf a13c 88bf
00000060: 01ac 8bbf 5b2c f3be cf17 bebe 8bb8 e5be
00000070: 054d 05bf e8f3 75be c122 56bf 5a6f 88be
00000080: 2e86 45be c96f 55bf 6455 32bd a098 2fbf
00000090: 57da 13bf a253 ccbe f1aa 48bf 10ed e0bd
000000a0: aa70 42bf 3298 36bf 6ed8 05bf 2993 e3be
000000b0: 8f03 efbe 66ed 13bf 9acb 5dbe d170 51bf
000000c0: d0b5 3bbf 109a 2fbf d325 00bf 424a 39bf
000000d0: a749 30bf b560 40bf 7a3c 3fbf 14c3 5fbf
000000e0: 0eeb 1ebf 52cd afbe ad92 88bf 1c5c 6bbf
000000f0: f330 ffbe 9b6e 16bf 3481 2bbf 7f2b 39bf
00000100: a17f 9abe 8d79 56bf bb32 60bf 9088 31bf
00000110: 9ce2 33bf 0495 6cbf aa01 90bf 4617 1ebf
00000120: 5450 8fbe 09a7 1bbf 3bf5 d6bd 93f5 06bf
00000130: 6721 c8be 4997 a1be d44e edbe 5176 5cbf
00000140: d356 87bf e155 0bbf e0bc 63bf 67d0 1cbf
00000150: 7832 3cbf 69c2 65bf e099 53bf add9 75bf
00000160: 56a8 41bf 2933 21bf 31c2 4fbe e46a ffbe
00000170: cac0 e8bb ee52 6dbf 1abc 6fbf ca58 b6be
00000180: ba30 a1be 9efa 60bf b021 cabe 1890 3cbf
00000190: 9ce3 d5be a606 29bf 82e3 78bf ff04 92bf
000001a0: 0b87 73bf 4054 6fbe 137c 22bf 73ef 90be
000001b0: 6402 18bf 45d4 63be 8ce9 90bf 1a5d 1bbf
000001c0: 09bf 64bf 4488 44be 3490 20bf 50f1 e2be
000001d0: 522a 14bf 3538 8fbf e4a3 c3be 960b d1be
000001e0: 1318 70bf b996 bcbf c602 0cbf ddb3 4fbf
000001f0: c028 6bbf b8fe febe 7112 f3be 8762 85be
-0.55057657 -0.5156096 -0.38416636 -0.66692585 -0.42323357 -0.42857873 -0.16938423 -0.26136395
-0.6007627 -0.6093339 -0.3679558 -0.45146784 -0.20961964 -0.38789013 -0.13739946 -1.1257075
-0.28737321 -0.7174413 -0.5329293 -1.1031585 -0.6459705 -0.5522696 -0.7054463 -1.0643502
-1.0911866 -0.47494778 -0.3712754 -0.44867358 -0.5207065 -0.24018824 -0.8364678 -0.26647455
-0.19289467 -0.83373696 -0.043538466 -0.6859226 -0.57755035 -0.39907557 -0.78385836 -0.10982716
-0.7595316 -0.7132598 -0.5228337 -0.44448212 -0.46682402 -0.57784116 -0.21659699 -0.8181277
-0.733243 -0.68594456 -0.50057715 -0.72378933 -0.68862385 -0.75147563 -0.74701655 -0.8740704
-0.62077415 -0.34336334 -1.0669762 -0.9193742 -0.49842033 -0.5876252 -0.66994023 -0.72331995
-0.30175498 -0.8377922 -0.8757741 -0.69349 -0.70267653 -0.9241488 -1.1250508 -0.6175426
-0.27990973 -0.6080175 -0.10495993 -0.52718467 -0.39087984 -0.31560734 -0.46349204 -0.86118037
-1.0573372 -0.54427916 -0.88960075 -0.61255497 -0.7351451 -0.8974977 -0.8265667 -0.9603527
-0.75647485 -0.6296869 -0.20288922 -0.4988624 -0.0071030604 -0.92704666 -0.93646395 -0.35614616
-0.31482488 -0.8788241 -0.39478827 -0.7365737 -0.41775215 -0.6602577 -0.9722215 -1.1407775
-0.95127934 -0.23371983 -0.6347057 -0.28307685 -0.5937865 -0.22248943 -1.1321273 -0.60688937
-0.89353997 -0.19192606 -0.62720037 -0.44324732 -0.57877076 -1.1189028 -0.38210976 -0.40829152
-0.93786734 -1.4733497 -0.5469173 -0.81133825 -0.91859055 -0.4980371 -0.47475007 -0.26051733

value_stream.0.weight f4 [128, 128]
00000000: 51b7 b63e 4915 27bf 1397 00bf e5e8 d23c
00000010: 559e 013f 072a c1be dfc6 debd f442 993e
00000020: 38ab f3bd 6143 d7bd e584 95be 54e9 793c
00000030: 17b9 90bd 2539 a53e cdbd 373f 69e4 333f
00000040: 0022 8e3e 2db6 bf3e 1a28 233d 0ef7 263f
00000050: ed5d 0c3f 3f25 7c3d 50d1 883e 48ce f13e
00000060: 65b4 af3e 26e4 1b3f db75 22bf f864 8bbe
00000070: eb78 f2bd 2ccc 263d bf1d a1be d590 fa3d
00000080: 9911 a33e cac0 0d3f 2a5b a33c e52d 34be
00000090: dd12 e13e 5a27 d13e 614a 00be 54a3 fc3d
000000a0: 3df6 1b3f 066c 933e 29c6 703e c70b b23e
000000b0: a605 9abc 7111 733e be4f 223f 6325 42bd
000000c0: 12a9 703e d831 c63e 9037 1dbe 6544 c53e
000000d0: 0c89 a9be 2e4e a53d 9322 103d 2e38 3e3d
000000e0: becf 143f c077 5e3e 752d c6be 64d5 603e
000000f0: ffbd 903e e012 153f e7cc 763e 4296 243f
00000100: 20fe 983e e98e 3e3e ec9f 34be 4001 78be
00000110: 3752 b03d 6025 6b3e c8e7 da3e e3d5 013f
00000120: 0178 ce3e 68c2 ab3e 62c8 373d 79a2 523e
00000130: de4f 8abe db78 c13c e4d2 b13e 08f5 f53d
00000140: 6209 dfbd fc17 2f3f 4115 0dbf d0dc ae3e
00000150: d324 1c3f c1f7 07bf 4fc6 643d 01ea 4abd
00000160: 37dd 093f b260 47bf f373 1f3e 58d6 f6bc
00000170: ece9 863e c79b 403d 6a9c 633e 10b8 ed3c
00000180: bfcf 903e 9476 5d3f 87d0 03bf 5b12 4cbe
00000190: 7e37 d33e 10f5 e63e 53fd 203e 8a68 8cbd
000001a0: 7ca5 06bf b95f a13e a0f5 803d c05d 2abf
000001b0: d01f 963e 8d03 563e 94cc 063b 1129 993e
000001c0: 497e dabe 8c8f 77be a683 d53c 8bbd 99bd
000001d0: 50a4 00bf 0ada e13d fb35 8abe 6c7d 49be
000001e0: c73d 72bf 8334 b4bc ed54 183f a2ed 1dbe
000001f0: eaf2 b93c 46e8 713e b22c bfbd d23c 843e
00000200: c55a c93e fc6a 23be 6af0 8f3e 36c9 b33e
00000210: 4dc9 933e ec56 b33e a59a d5be 3926 75be
00000220: 314d 41bd b6d7 083f edb2 e23e b8eb d73e
00000230: e5c5 bdbe 27fc 3d3e 66dc cd3e f098 103f
00000240: 90d7 243e 0d01 5bbf 3ce3 913e 6677 e63e
00000250: 9065 a83e 7047 9abd 5eca fc39 592d 343f
00000260: 2114 023f 38ac ba3e 974e cc3e febf 883f
00000270: 76e5 1b3e 09ee 033f f66e 4c3e a812 88bf
00000280: 7bc0 093e 99bf 10bf be9b a63d 3d9d dc3d
00000290: 84cb 7c3e ef59 923e e58c c93e c751 65be
000002a0: 2ad5 1fbd 3497 853f 0235 68bf b9d3 39bf
000002b0: af61 5cbe 3a2b 3ebe 6b14 923e 9c20 603e
000002c0: c542 ed3d 0750 c83e b288 c7be 2ca9 c23f
000002d0: af94 02bf d72d 633e 0274 2a3f 5850 a63e
000002e0: eef7 c33e 34d5 9a3e 2454 17be ac33 c43e
000002f0: a892 bcbf 9c49 c63e 2394 d93e c10e 783f
00000300: 3e14 bdbf 56e4 893f 75db 5a3f 1d3f 67bf
00000310: e613 2b3f bb99 eb3e f868 043f 78c0 f33d
00000320: 538e 01bf 5b48 d23e 64d6 6c3e fea0 a3be
00000330: 523d e6bd 3952 dd3d 3d41 233e 3220 073f
00000340: 948b 903e bac6 b93e 8d73 c0bd 91d0 d93e
00000350: e0dc 653e 1f50 2f3f 284a 063f cd19 af3e
00000360: dbb5 e13e bd52 42be a9a2 a23e 0b12 763e
00000370: 3193 0a3d 65ce 3bbf 9468 533e a74f c93e
00000380: 7855 d03e 1643 d63e 6579 af3e 1ab2 6cbe
00000390: 8d30 58bf 4a9e 833e 3d81 033f bad6 0d3c
000003a0: bb48 8e3e 81c0 a0bf abca 883e af19 ee3e
000003b0: 3ecc 23bf 7ffa 98be 7727 003f bdc7 aebe
000003c0: 617a e93e 618b 113e 8aad 073d c6ab 22be
000003d0: 5503 a13f a784 1d3f 48e8 a63e 1685 d7be
000003e0: 3f19 1c3f 1d2f efbe 378f 8f3e f4d0 ae3e
000003f0: c3f9 a33e 31ec 383c 81c3 d03e 119a bdbf
0.35686734 -0.65266854 -0.5023052 0.025745818 0.5063222 -0.37727377 -0.108777754 0.29933894
-0.11897892 -0.105108984 -0.29202953 0.015253384 -0.07066553 0.3227016 0.7177399 0.702704
0.27760315 0.37443677 0.039833166 0.65220726 0.5483082 0.06155896 0.26722193 0.47227693
0.34317318 0.60895 -0.63461083 -0.2722547 -0.118394695 0.040722057 -0.31468007 0.12234656
0.31849363 0.553723 0.019940931 -0.17595632 0.43959704 0.40850335 -0.12528373 0.1233584
0.60922605 0.28793353 0.23513092 0.3477461 -0.018801522 0.23737122 0.63402927 -0.047398936
0.23501995 0.38709903 -0.15353227 0.38528743 -0.3311237 0.08071552 0.035189223 0.046440296
0.5812949 0.21725368 -0.38706556 0.21956402 0.28269956 0.58231926 0.24101602 0.64291775
0.29881382 0.18609203 -0.1763913 -0.24219227 0.08609431 0.22963476 0.4275496 0.5071699
0.4032593 0.33546758 0.044868834 0.20569791 -0.2701406 0.023617199 0.3473121 0.120096266
-0.108904615 0.6839597 -0.55110556 0.34152842 0.6099369 -0.5311242 0.055853184 -0.04953957
0.5385317 -0.7788192 0.15571575 -0.030131504 0.26350343 0.04702356 0.22227636 0.029018432
0.28283498 0.8650906 -0.5149006 -0.19928877 0.41253275 0.45108843 0.15721636 -0.06855877
-0.5259626 0.31518343 0.06296849 -0.665493 0.29321146 0.20899792 0.0020568715 0.29914144
-0.42674473 -0.24175853 0.026063751 -0.075068556 -0.5025072 0.11027916 -0.2699431 -0.19676751
-0.94625515 -0.021997696 0.59504586 -0.15422681 0.022698838 0.23623762 -0.09334697 0.25827652
0.39327064 -0.1595878 0.2811311 0.3511445 0.28864518 0.35027254 -0.41719547 -0.23940362
-0.047192756 0.5345415 0.44277135 0.42172027 -0.37065044 0.1855322 0.40207213 0.56483364
0.16097856 -0.8554848 0.2849368 0.4501297 0.32889986 -0.07533157 0.0004821596 0.70381695
0.50811964 0.36459517 0.3990371 1.0683591 0.15224251 0.5153509 0.19964203 -1.0630693
0.13452332 -0.56542355 0.08135174 0.10772178 0.2468701 0.2858424 0.39365306 -0.22394477
-0.03902165 1.0436769 -0.90705884 -0.7258869 -0.21521638 -0.18571177 0.28531203 0.2188744
0.11585001 0.39123556 -0.38971478 1.5207877 -0.51008123 0.22185455 0.66583264 0.32483172
0.38275093 0.30240786 -0.14778191 0.38320673 -1.4732256 0.38728034 0.42495832 0.9689751
-1.4771802 1.0772808 0.85491115 -0.9033068 0.6682724 0.46015725 0.5172267 0.11901945
-0.50607795 0.41070828 0.23128659 -0.31958765 -0.11242165 0.10806698 0.15942855 0.527835
0.2823149 0.3628443 -0.093970396 0.42541936 0.22447538 0.6848163 0.52456903 0.34199372
0.44084057 -0.18976875 0.31764725 0.2403032 0.03383178 -0.7336181 0.20645362 0.39318582
0.40690207 0.41848058 0.34272304 -0.23114815 -0.8444908 0.25706702 0.51369077 0.008657152
0.27789864 -1.2558748 0.26717123 0.4650397 -0.63983524 -0.29878613 0.5006022 -0.34136763
0.4560118 0.14213325 0.033124484 -0.15885839 1.2579142 0.61530536 0.32599092 -0.42093724
0.6097602 -0.46715632 0.28038952 0.34143794 0.3202649 0.011286781 0.40774158 -1.4812642

value_stream.0.bias f4 [128]
00000000: 0dac 993c 844c 0e3f edf8 a0bd f0b8 023e
00000010: 08f8 a93e fc7d a93e 1b28 2e3e 7f07 8d3e
00000020: 134a 843c 62ea 293d f2b5 d23e 719e 133f
00000030: 97a3 223f 1c97 bc3e 6369 8b3e 3e1f 083e
00000040: 00db 883e 66fc 743e 566c b9bd c9da b03d
00000050: 5df5 113e 4d96 423e 0388 9e3e d45f 9f3e
00000060: 32f0 1e3f 6183 fe3d 11a4 9f3e 1ada 443e
00000070: 9d47 ce3d 09fd b53d c5da 983d 275b 103f
00000080: 556c 073f f4c7 e03e 53e3 ef3e dfb0 203f
00000090: 0a73 643e 808c dd3e 6672 de3e 02a6 103f
000000a0: 8c03 a93e 1dd8 983e 3c18 e4be 219a 903e
000000b0: dd4f ab3e 48cc dc3e c788 7cbe 1891 ce3d
000000c0: f1fb e83d df51 7a3e e27f b13e 7e18 573e
000000d0: 3e2d 763d c9f6 f23e 0a06 083e 1da8 e03e
000000e0: e5ba a23d 32db 1d3c 72d9 dfbd 30ad 61be
000000f0: a01b b83e 9f08 003f 17bc b23e 1534 0a3d
00000100: 7b89 e13e 28ba c03d 84f6 af3e 8215 d53c
00000110: ac73 f93d 01a6 953e 0a0f 1abc 1df7 cc3e
00000120: b29f c93e 0d96 5a3e 66c9 1a3e c349 b13e
00000130: 2714 0f3e 1493 9e3e 242e 803e c633 153e
00000140: dd07 a6bc 7e8b c53d d212 e23e 53a5 de3e
00000150: 7b43 573e 39f8 723e dbc7 063f 7875 833e
00000160: b86a 24be e851 cc3d f8ca 0b3e 5490 a6bc
00000170: 6cb7 973e c25e f93e e6e5 14be 5dbe 7bbe
00000180: 65ff 333e 8cde 843e 496f f63e c622 063f
00000190: 89d5 133f a7f6 173e 7297 793e 76dd 8d3e
000001a0: bde3 9f3d 20fc 223f ed65 f93e 99ed 013f
000001b0: f2a3 8f3e 5aa8 f93e 4f88 3dbe 2281 bc3e
000001c0: 74b2 ac3e a573 1a3e 490f 3bbd 32fa 0c3f
000001d0: 1e36 743e 7567 9f3d 1bae 083e 6d0e 753d
000001e0: 4338 5b3e b1da 84bd 8005 073f c642 e23d
000001f0: 9f08 19bd a9ae 13b8 1706 7cbd aa7d a0bd
0.018758798 0.55585504 -0.07859979 0.1276586 0.33197045 0.3310393 0.17007487 0.27544782
0.016148603 0.04148329 0.41154438 0.5766364 0.6353087 0.36834037 0.2722884 0.13293168
0.26729584 0.23924407 -0.090538666 0.0863548 0.14253755 0.19002648 0.30963144 0.311278
0.6208526 0.12427402 0.3117986 0.19223824 0.10072253 0.08886153 0.07463602 0.5638909
0.52899677 0.43902552 0.46853122 0.62769884 0.22309509 0.43271255 0.43446654 0.5650331
0.3301052 0.2985238 -0.4454974 0.2824259 0.33459368 0.43124604 -0.24661551 0.10086268
0.11376179 0.24445294 0.3466788 0.21005437 0.06010174 0.47453907 0.13283554 0.4387826
0.079458036 0.00963478 -0.10930146 -0.22038722 0.35958576 0.50013155 0.34909126 0.033741076
0.44050202 0.094105065 0.34367764 0.026011232 0.12180266 0.29228213 -0.009403 0.40032282
0.3937965 0.21346302 0.1511589 0.34626588 0.13972531 0.30971587 0.25035203 0.14570531
-0.020267421 0.09645747 0.44154984 0.43485507 0.21021836 0.23727502 0.52648705 0.2567556
-0.16056335 0.0997656 0.13651645 -0.020332493 0.29632127 0.48705107 -0.14540824 -0.24584337
0.17577894 0.2595104 0.4813178 0.5239681 0.57747704 0.14840184 0.24374178 0.27708024
0.078071095 0.6366596 0.48710576 0.5075317 0.28054768 0.48761255 -0.18509029 0.3681727
0.337299 0.15083177 -0.045668874 0.5506927 0.23848769 0.07783405 0.13347666 0.05982821
0.21408181 -0.064870246 0.5274277 0.11047892 -0.037361737 -3.5210196e-05 -0.061529245 -0.078364685
