source_code/saved_models/Double_DQN_Level1.pth (torch, 751959 bytes, 64 tensors)

feature_layer.0.weight f4 [256, 22]
00000000: 5c8f 383f c98d b33e 501b 41bd 1ca8 c43e
00000010: 2dcf 5c3e 3921 a03e 5d5f 1e3e 885b 0f3f
00000020: 6027 8c3e f682 3b3f 3a79 4f3e ef0b 3a3f
00000030: 205c bd3e fdee 013f b76b 7f3f c107 b6bd
00000040: 14ef c2be 5163 953f e57f 3f3f 41da 923e
00000050: 43bf 133f 655a e53e ff28 ff3e 405e 2e3f
00000060: 89be 273f 5ee2 c73e b8d7 bc3e 92ea a43e
00000070: a150 a43e aa89 ab3e 5f3d 8f3e bcec 183f
00000080: 0392 d43e c52a d23e a84d 543f e1bf d7be
00000090: 45d6 363f 15fb 9c3d f0aa 6bbf 6a2a 5f3f
000000a0: 0bb4 383f c563 bf3e b6f8 353f 6a63 4e3f
000000b0: 18d6 703f 050b b23e 7489 d8bb 8d41 73bd
000000c0: ac92 b83e e095 fb3e 50cf 053f f23f 123f
000000d0: 3a2d bf3e b217 2e3f 4d04 3b3f 4df4 033f
000000e0: 40a2 e43e 4ea7 a83f 7bdd 243f f7b0 d73f
000000f0: 21d7 0f3f 881f 753e bda7 403f 6f88 3d3f
00000100: a5ad 753f 1c88 303f 10e1 b13e 5191 38be
00000110: 082b 183f bb78 5f3d a254 073f 6da1 1e3f
00000120: 393e e63e b56c 2e3f 0a9b 143f 047c 023f
00000130: c3c8 153f 52fa b03e 7d9a c83f ec96 a6bf
00000140: e2b1 2c3f 5e7c 973e a4d6 173f e9e8 1abe
00000150: 6199 483f deeb 8b3f 5d1a 3c3f c757 343f
00000160: 3615 f63e 4877 893e f4f6 df3e 12a1 583e
00000170: 9d7b 8a3e 21d3 953e 751e 47bf 5d59 d13e
00000180: f094 813e add1 d03e 7dce e83e 24fb 013f
00000190: 3d1a 3cbd dd6d 5840 9fad 9f3f a668 f23d
000001a0: e923 193f 9544 343f 08a4 5f3e e151 1f3f
000001b0: c3df 6c3f a074 d23e 2b5f 243f ecea 043f
000001c0: f22e 293f b5d4 013f 991e 073f a52c f53e
000001d0: 4ed0 a03e d0ba 043f 70d1 b03e 4406 ec3e
000001e0: 44d3 033f d710 be3e 6b95 7abf e89e abbf
000001f0: edf2 6dc0 bbce b93e b50b 0e3f 01f0 ce3e
00000200: 4a61 023f feb6 053f 41c4 743f 2270 143f
00000210: 128a c3bd ba14 443f 9341 2ebe e3b8 643d
00000220: b33f eb3e c6bc 093f 185a 93be 6131 f33e
00000230: 103e 633e 41fb 063f 7427 d73e 5a2b 823e
00000240: 8e5d 58be ac86 a13d e3ba fcbe 6ffd d63f
00000250: 25ce 713f 0c3a 013f 6eeb 1b3f 4884 073f
00000260: 397b 1a3f 9290 ce3e 7cb4 d53e 426f d53e
00000270: 5009 bb3e d47e 9e3e 0a0b 113f dda2 f23e
00000280: 3da2 283e d5c3 003f 94ea bf3e 7b78 1a3f
00000290: 546b 143f 7f1d e03e fdc3 9d3f 3d1c 87c0
000002a0: 1c43 15bf bb9a b63e cca9 113f 26ee 4b3d
000002b0: ecc2 193f 5393 b93e d2db 393f 749e 2a3f
000002c0: 47b8 b2bd 7b72 9e3e 134b 7c3e 266e 713e
000002d0: 673c 033f 7941 333e 99b1 ab3e 9e5c f83e
000002e0: 515a b43e 71d8 053f f72a 2b3f 4150 9c3e
000002f0: 4835 c3c0 9aad f13f f0ce e5be 3a8e ff3e
00000300: e242 153f 4406 1c3e 47f3 103f 26e7 523f
00000310: d9bc 873e 5450 113f 729b 383f b6ed 483f
00000320: af6d f73e a676 863e c9f0 173f ca82 e63e
00000330: 1b97 953e b5c1 e73e c861 ea3e 047c 143f
00000340: 44ad 803e c389 db3e 206f 2fc0 8999 883f
00000350: a8bc 10c0 0e1e 813e 048c 0b3f fbb0 813e
00000360: 2f1f e23e bba0 123f 09de 913f ef88 c43e
00000370: 25f2 513f df66 c93e 78b3 9a3f d646 373e
00000380: 167f c23e 1dc2 023f ebdd 9a3e 9ca2 dd3e
00000390: 5684 4e3f 2266 db3e cb43 143f 31c3 383f
000003a0: 5038 65bf 2872 b13f f653 e03e 827f 933f
000003b0: 0301 413f e552 b83f d305 203f c217 123f
000003c0: de7e 1a3f 774e 313f b332 90bd 5442 a63e
000003d0: 9892 773e 5bd7 503e fbab eb3e c68f c33e
000003e0: b9c4 023e 48f0 8a3e ed34 b73e 5105 b33e
000003f0: 6a8f 8e3e 1bde 283e a558 9a3f 7fdb 84bf
0.7209375 0.3506911 -0.047145188 0.38409507 0.21563406 0.31275347 0.15466066 0.5599904
0.2737379 0.73246706 0.20261088 0.7267446 0.36984348 0.5075529 0.99773735 -0.08888198
-0.38073027 1.1670934 0.74804527 0.2868214 0.5771372 0.44795528 0.49835965 0.68112564
0.6552511 0.39039892 0.3688333 0.32210213 0.32092765 0.33503467 0.2797651 0.5973623
0.41517648 0.41048256 0.82930994 -0.4213858 0.714207 0.076650776 -0.92057705 0.87174094
0.72149724 0.37380806 0.7108263 0.80620444 0.9407668 0.34774032 -0.0066081826 -0.059388686
0.36049402 0.49137783 0.5226946 0.5712882 0.37339193 0.68004906 0.7305344 0.5154465
0.44655037 1.3176057 0.6440045 1.685088 0.56187636 0.2393781 0.7525595 0.74036306
0.95968086 0.68957686 0.34742022 -0.18024184 0.5944066 0.054558497 0.52863514 0.61965066
0.44969347 0.68134624 0.5804907 0.5097048 0.58509463 0.3456598 1.5672146 -1.3014808
0.6745893 0.29587072 0.5931189 -0.1512791 0.7835904 1.0931356 0.7347773 0.7044644
0.48063058 0.26848817 0.43743098 0.21155193 0.27047434 0.2926264 -0.7778085 0.4088849
0.25308943 0.4078497 0.45470038 0.50773835 -0.04592346 3.3817055 1.247486 0.11836366
0.5982042 0.7041715 0.21839917 0.6223431 0.92528933 0.41104603 0.64207715 0.5192096
0.6608726 0.5071519 0.52781063 0.47885624 0.31408924 0.51847553 0.34534788 0.4609853
0.5149424 0.37122223 -0.97884244 -1.3407869 -3.717952 0.36290535 0.55486614 0.40417483
0.509297 0.5223235 0.9561196 0.579836 -0.09547819 0.76594126 -0.17017202 0.055840384
0.45947036 0.5380367 -0.28779674 0.4749861 0.22191644 0.52727133 0.42022288 0.254237
-0.21129438 0.07887015 -0.49361333 1.6796092 0.94455177 0.504792 0.6090611 0.5293622
0.6034427 0.40344673 0.4173926 0.41686445 0.36530542 0.30956137 0.5665747 0.4738988
0.16468139 0.50298816 0.37483656 0.6034009 0.5797627 0.43772504 1.2325436 -4.222197
-0.58305526 0.35664925 0.56899714 0.049787663 0.6006305 0.36245212 0.72601044 0.6664803
-0.08726554 0.30946717 0.24638014 0.23577175 0.5126404 0.17505445 0.33533934 0.4850816
0.35225156 0.5228339 0.66862434 0.3052998 -6.100254 1.8881104 -0.44884443 0.49913198
0.5830518 0.15236765 0.5662121 0.82383955 0.26511267 0.56763196 0.7211219 0.7848772
0.4832587 0.26262397 0.59351784 0.4502166 0.29216847 0.45264974 0.45777726 0.5800173
0.2513219 0.4287854 -2.7411575 1.0671855 -2.2615147 0.25218242 0.5451052 0.25330338
0.44164416 0.57276505 1.1395885 0.38385722 0.8201011 0.39336297 1.208602 0.17898116
0.37987584 0.51077443 0.30247435 0.43288124 0.8067068 0.4285136 0.57915944 0.7217284
-0.8953905 1.3862963 0.43814057 1.1523287 0.7539217 1.4400297 0.6250889 0.570675
0.60349834 0.6926035 -0.0704092 0.3247248 0.24177015 0.20394652 0.46029648 0.38195628
0.12770356 0.27136445 0.35782567 0.34964994 0.2784379 0.16490977 1.2058302 -1.0379485

feature_layer.0.bias f4 [256]
00000000: 2544 443f 4d64 4b3f 3be2 133f 3ff3 213f
00000010: 98a7 913e 1eb5 033f 4d5c eb3e c248 113f
00000020: 78ca 023f 8791 da3e c6cd 3d3f fe61 a93e
00000030: 8844 293f 4923 b43e 878e 0a3f 157c 173f
00000040: f499 a63e 24c5 573f 7372 133f 4203 363f
00000050: c767 103f cbbd 473f f6b1 473f 64da 253f
00000060: 20af 503f 23f3 023f 2020 863e eda6 043f
00000070: 799a a83e 66a0 1f3f 9aa4 f33e 2110 ff3e
00000080: ff9e 023f 522e 3c3f 644b 333f c978 263f
00000090: 53e9 dd3e 6f99 1d3f 7a6f 433f c4cd 3f3f
000000a0: 344f 653f 046f 103f 82fb 583f df85 083f
000000b0: 430d eb3e 2a41 193f c60b 053f 3244 023f
000000c0: 3b7a 193f 9ca2 273f e6a1 293f ff95 163f
000000d0: 10e8 a13e b547 063f 9649 0a3f e832 b93e
000000e0: 05e3 263f 3434 f83e 4273 093f c349 063f
000000f0: 4b3d 223f f31c 073f 782f 063f 875f 243f
00000100: f88e 923e 8a40 623f bf04 c63e 0b6e 923e
00000110: 4c79 df3e 4e9e 573f bcf3 fa3e 4cfe 053f
00000120: d3fb 333f 059f e13e 250e 413f b0ed 1f3f
00000130: cb9c e63e 8c8b 1b3f bfa0 003f 0918 de3e
00000140: cf70 7f3e 1fb3 f93e 54d5 103f f56f 263f
00000150: 26f6 183f 29a1 283f 8d0e 333f bba7 053f
00000160: 5e19 ca3e 186c b03e 4c47 0a3f 6569 013f
00000170: 63ff ff3e 7f21 3c3f 4b07 303f 3a0c 2e3f
00000180: 93e9 e13e 4c73 203f 29ee b43e 138d 453f
00000190: b5ee 073f f797 f83e 027e ff3e ff83 1b3f
000001a0: 8c73 1e3f d1e7 053f cbbf ae3e 34e0 413f
000001b0: d2dc 633f 24d4 783e 70d2 b03e 088b 143f
000001c0: fc30 ec3e 0c97 163f 7f17 063f 03cb ed3e
000001d0: 9b58 043f abe3 c93e 3e3a 4a3f 2754 183f
000001e0: 8acb 0e3f 53d3 253f c831 e83e d39b 153f
000001f0: b8aa 0e3f db8a 173f bf1e 543f 0c9b fc3e
00000200: f1cc 3d3f 49db 203f fc61 053f 2af8 e73e
00000210: 548d 2e3f 9515 2e3f 3674 133f e368 263f
00000220: d104 013f 9b2a 253f 2724 473f e517 a83e
00000230: a207 263f 57c0 073f f6d0 a13e f59e 033f
00000240: 6bd9 a83e 9763 183f e492 113f df83 ac3e
00000250: 8be2 c63f afcd f03e de49 013f 507d 583f
00000260: 148e 9c3e 3bd5 db3e 4bdb ea3e 416d 213f
00000270: 37e0 b23e bbe0 f63e bf26 023f f9a8 ec3e
00000280: 98fd 0b3f 4bc6 a43e 67b8 ad3e 849d b73e
00000290: 79e8 f13e a5eb 1f3f 625e fd3e c704 da3e
000002a0: b1df f53e 0ba6 0a3f fe8a 9a3e 027b 053f
000002b0: c0cd 1d3f 9bc9 543f 00d3 043f 9a51 643e
000002c0: 2134 0c3f 4418 063f 91ec 163f 2f82 c03e
000002d0: 01d9 2c3f 5202 203f f1e9 283f 86ce dd3e
000002e0: ed5a 993e 96a3 053f cb73 113f a49f dc3e
000002f0: c420 443f 71e7 363f 4360 ef3e f751 013f
00000300: 1821 103f b537 2c3f 3d46 1a3f 3dee df3e
00000310: 08db 6f3e d235 d53e 0dfb 163f ab0b f33e
00000320: 0a35 0a3f b6ad f73e 7bb5 e33e 4d17 b83e
00000330: e3e7 d23e c0a4 c33e a9b5 3a3f 34a3 273f
00000340: ae4d 203f 6f34 553f 58d8 483e 3ec3 973e
00000350: 2594 853e eaa3 1f3f c368 0a3f acbd a63e
00000360: 69d8 333f 1057 283f 3496 153f 402c 323f
00000370: cf31 fb3e 5cb0 153f abfc 573f 8c78 223f
00000380: 6df8 063f d856 283f 135c 4e3f 2864 ee3e
00000390: b4b2 fa3e a89c 3d3f dbbf 223f fa18 ff3e
000003a0: 635b 143f 95c1 1a3f 45d1 f33e c741 f13e
000003b0: ff6f d33e 3cc4 3b3f b9a8 003f 8383 053f
000003c0: ed53 363f 8dc5 113f 8716 cc3e c471 263e
000003d0: 988f a43e a9a7 1f3f 2230 173f 714b 1d3f
000003e0: a50a 4f3f 9276 bc3e 8ccf 213f bfbc 033f
000003f0: b0a5 033f df69 3e3f 1d82 583f 1400 4a3f
0.7666648 0.7944992 0.57767075 0.6326179 0.28448176 0.5144824 0.45968857 0.56751645
0.5109019 0.42689154 0.7414211 0.33082575 0.66120195 0.3518317 0.5412373 0.5917371
0.32539332 0.8428519 0.5759651 0.7109872 0.5640835 0.78023976 0.7800592 0.6478636
0.8151722 0.5115225 0.26196384 0.5181721 0.32930353 0.62354124 0.4758652 0.49816993
0.5102386 0.7350818 0.7003691 0.65028054 0.43342075 0.61562246 0.76341975 0.7492335
0.8957398 0.56419396 0.8475877 0.5332927 0.45908555 0.5986506 0.5197109 0.5088531
0.59952134 0.654825 0.6626266 0.58822626 0.31622362 0.52453166 0.54018533 0.3617165
0.65190154 0.48477328 0.53691494 0.524563 0.63374776 0.5277855 0.5241618 0.64208263
0.28624701 0.8837973 0.38675496 0.2859958 0.4364723 0.8422593 0.4901408 0.5234115
0.7030613 0.44066635 0.7541221 0.6247206 0.450415 0.60759807 0.5024528 0.43377712
0.24945377 0.4876947 0.5657551 0.6501458 0.5975059 0.6587091 0.6994408 0.5220906
0.3947248 0.3445747 0.5401504 0.50551444 0.49999532 0.7348861 0.6876113 0.67987406
0.44123515 0.6267593 0.35337952 0.7716839 0.53098613 0.4855344 0.49900824 0.60748285
0.6189506 0.5230685 0.341307 0.7573273 0.8900882 0.24299675 0.3453555 0.58024645
0.46131122 0.5882423 0.523796 0.46443948 0.516977 0.3943151 0.7899512 0.59503406
0.55779326 0.6477558 0.4535048 0.58440894 0.55729246 0.5919625 0.82859415 0.4933704
0.7414084 0.628346 0.5210264 0.45306522 0.681844 0.6800168 0.575992 0.65003794
0.50397974 0.64518136 0.7778954 0.3283073 0.64855397 0.5302786 0.31604737 0.51414424
0.32978377 0.5952696 0.5686476 0.3369436 1.5537885 0.47031924 0.5050334 0.8456621
0.30577147 0.4293612 0.45870432 0.63057333 0.34936687 0.4821833 0.5084037 0.46222666
0.5468383 0.32182536 0.3392975 0.35862362 0.47247675 0.6246894 0.4948607 0.4258177
0.48022225 0.5415961 0.30184168 0.5214082 0.61642075 0.83120126 0.5188446 0.22296754
0.5476704 0.52380776 0.5895472 0.37599322 0.6751862 0.6250354 0.65981966 0.43321627
0.29952183 0.5220274 0.5681731 0.43090546 0.76612496 0.714469 0.4675313 0.50515693
0.563005 0.672725 0.60263425 0.4373645 0.23423398 0.41642624 0.58976823 0.4746984
0.5398718 0.48374718 0.44474396 0.35955277 0.4119254 0.38211632 0.7293344 0.65483403
0.6261853 0.8328313 0.19613779 0.29641145 0.26089588 0.6235949 0.54066104 0.32566583
0.7025209 0.65757847 0.58432317 0.6959877 0.49061438 0.5847223 0.84369916 0.6346519
0.5272282 0.65757513 0.80609244 0.46560788 0.48964465 0.74067163 0.63574 0.49823743
0.57951945 0.6045163 0.47620597 0.47120497 0.41296384 0.73346305 0.5025745 0.52153796
0.7122181 0.56942064 0.39860937 0.16254336 0.32140803 0.62365204 0.5905782 0.6144324
0.8087562 0.36809212 0.63207316 0.5145988 0.51424694 0.74380296 0.8457354 0.7890637

feature_layer.1.weight f4 [256]
00000000: 9dc8 f33f 4471 1e40 216a f43e 43d7 323f
00000010: aea2 c43f af3c 6f40 1acd 143f cb64 0f40
00000020: 9e4b f33f 632a 2a40 70f4 fb3e ad15 993f
00000030: aff0 263f 3da5 a83f 0f55 1540 2181 253f
00000040: 9959 b83f 3969 bf3e ddc5 883f 6cdf 0f3f
00000050: 2e22 0940 97ac f33e 6602 f93f 8749 993f
00000060: 0185 603f 42a1 8c3f eafe b13f ad1f 2140
00000070: a00d ce3f 3a66 093f eb66 ef3f 8187 713f
00000080: 75d8 9940 ddc6 c23f 6e35 533f b6a3 c13f
00000090: 4e83 c43f c23f 0a40 e98d be3f 6329 833f
000000a0: c1e1 c83e 2a2e 1840 341a fb3f cbda 503f
000000b0: bfb5 1f3f b12d 053f 0e64 e03f 7836 8740
000000c0: e9df 5a3f be24 053f 6bd1 d03f f154 0040
000000d0: eafa 903f 70be 103f 72f0 5240 f43b f83f
000000e0: 4163 353f 1315 c63f 537b 8d3f 8fc2 ca3f
000000f0: ff04 c63e 2abb a83f b5dc e63e d256 2c3f
00000100: 4742 763f 60a1 c23f 5d4e dd3f ab9d 373f
00000110: 1fe6 d33f a3c8 2840 4f57 0440 c8f6 563f
00000120: 8586 723f aafd 5e40 fdd3 703f 2cea 9d3f
00000130: 32ba 243f e9e2 393f 252d 7d3f 515f ce3f
00000140: 1c81 ca3f 1f95 2d3f 8d8e 8a3f 0ea1 613f
00000150: 0efe 203f f806 5e3f 88f1 9e3f b5af e03f
00000160: 4127 313f 838e 4a40 e45d 3f40 e674 d73f
00000170: 9f1b 333f c060 aa3e 080b 253f c1ab e33f
00000180: dd13 d93f e178 873f 0cee 4c3f d0d2 d93e
00000190: f36d 6e3f d7d2 2240 5bae 533f db6d 123f
000001a0: 5061 8f3f ee05 3c3f 3fd2 1040 e4ab 5040
000001b0: 08b1 de3f a2cf a03f c1ac be3f 2f80 323f
000001c0: 0d34 723f 8237 0f3f 7442 723f 1c3d d53f
000001d0: d432 2e3f e30b 4b3f b23d 1240 bb61 9e3f
000001e0: cdac c83f 1e19 c93e b851 783f 5dc2 043f
000001f0: c655 0c3f 2a2f ac3f 2379 fa3e 5111 8c40
00000200: 80dc c73e 2439 1740 f7f8 703f 62f6 a73f
00000210: 66ca 623f e57f 0240 ce9d d13f e706 663f
00000220: f933 0440 1337 493f 5cd4 a23f bcc7 813f
00000230: dd5d 5b3f cc20 7040 0cfa 763f 54f7 a43f
00000240: 6710 6b3f e9b9 453f 02b8 2e3f 63c4 bc3f
00000250: c888 a63d a15c 163f 330c 6740 e5ee d73e
00000260: 9245 c43f 599d cc3f e6bb 8a40 ebe8 f23e
00000270: ac32 b83f 4f82 b53f 4155 8d40 45aa 9640
00000280: 9c05 873f 79c7 2c40 1d61 1e40 12bf 763f
00000290: 9c37 213f 0438 7d3f 964d 823f e5e2 8f3f
000002a0: 7570 df3f 60ca 6a3f 09f2 4f3f 2313 6440
000002b0: 4467 343f 132c f73e f044 723f d8e7 2640
000002c0: 6646 583f 9b5d 093f be46 af3f 0a21 2e40
000002d0: 885b 653e 8ce8 9f3f 1b11 8e3f 341b 0940
000002e0: 185c b63f b212 4c3f bea8 7a3f 160e e33f
000002f0: f35b 843f 6cbd 853f 3931 6d3f 0eda a83f
00000300: 5eff 503f 2be8 b53f b330 5540 aab9 5740
00000310: 8c29 9d3f 6280 553f 41e5 0940 2115 bb3f
00000320: 5dca e13f 6676 7e3f e826 0d3f 0319 923f
00000330: 3524 9e3f 4a08 463f c9dc 203f 1898 b73f
00000340: 2395 db3f 8bc0 8240 8651 d73f f97e 593f
00000350: 4351 a13f b740 fc3e 4b74 eb3f cc1a 0b40
00000360: 8cb4 ab3e c5ce 013f 928c ae3f 86e3 863f
00000370: 31f5 b13f 26e7 ba3f 48bb 1b40 16f9 2a3f
00000380: 4007 8d3f 331c b93f 09f8 9b3e 104c ef3f
00000390: 75e8 dd3f b7ef 933f 4fd1 df3e 8277 713f
000003a0: 9149 ef3e 4030 073f f073 b53f 5e78 9740
000003b0: c872 223f 250e 653f 3d83 9c40 ffaa 183f
000003c0: dce9 093f 5839 513f fa7f 203f 98c9 943f
000003d0: 6416 3740 ea3a 1c40 9aff b93f 6905 e33f
000003e0: ce39 693f cbe6 db3f 09cc 523f e2ee 6f3f
000003f0: 9b81 883f eff9 f63f 4cd2 ec3e 2d7d 7b40
1.9045597 2.4756632 0.4773722 0.69859713 1.5362146 3.7380788 0.5812546 2.240527
1.9007452 2.658837 0.4920993 1.195974 0.65211004 1.3175427 2.3333166 0.6465016
1.4402343 0.37384966 1.0685383 0.5620029 2.1427112 0.47592613 1.9453857 1.1975564
0.8770295 1.0986712 1.3905919 2.5175583 1.6097908 0.5367161 1.8703283 0.9434739
4.807673 1.5216938 0.825034 1.5128086 1.5352571 2.1601415 1.4887058 1.0247005
0.39234737 2.3778176 1.9617372 0.8158385 0.623867 0.52022845 1.7530534 4.225399
0.8549791 0.5200919 1.6313909 2.0051844 1.1326573 0.56540585 3.2959256 1.9393296
0.70854574 1.5475181 1.105326 1.5840625 0.38675687 1.3182118 0.4509026 0.6731998
0.9619488 1.5205498 1.728954 0.7172496 1.6554602 2.637246 2.067829 0.8397031
0.9473651 3.4842324 0.9407347 1.2337089 0.6434661 0.7261186 0.9889701 1.6122838
1.5820651 0.67805666 1.0824753 0.88136375 0.62887657 0.86729383 1.241746 1.7553622
0.6920052 3.1649482 2.9901056 1.683255 0.6996402 0.3327694 0.6446996 1.778679
1.6959187 1.0583764 0.8005073 0.4254365 0.9313652 2.5441186 0.8268792 0.57198876
1.1201572 0.7344655 2.2628324 3.2604914 1.7397776 1.2563365 1.489647 0.6972684
0.94610673 0.55944073 0.9463265 1.6659274 0.6804631 0.7931501 2.2850156 1.2373575
1.5677735 0.39276975 0.9699969 0.51859075 0.5481838 1.3451893 0.48920545 4.377114
0.39035416 2.3628626 0.9412989 1.3122065 0.88590086 2.039056 1.6376283 0.8985428
2.0656722 0.7859966 1.2721057 1.0139079 0.856901 3.7520018 0.9647529 1.2887979
0.91821903 0.772368 0.68249524 1.4747432 0.08131558 0.5873509 3.6101196 0.4217445
1.5333731 1.5985519 4.335437 0.47443327 1.4390464 1.4180392 4.416657 4.708285
1.0548587 2.6996748 2.4746773 0.963853 0.6297548 0.989136 1.0179927 1.1241118
1.7456194 0.9171505 0.8122869 3.563668 0.7047007 0.48275813 0.9463644 2.6079006
0.8448242 0.53658456 1.3693464 2.7207665 0.22398198 1.2492843 1.109897 2.1422853
1.4246855 0.79716027 0.9791373 1.7738674 1.0340561 1.0448432 0.9265323 1.3191545
0.8163966 1.4211477 3.3310974 3.370707 1.2278304 0.8339902 2.1546175 1.4615823
1.7639881 0.9939941 0.5513749 1.1413883 1.23548 0.773564 0.6283689 1.434329
1.7154888 4.086004 1.6821754 0.8495937 1.2602924 0.49268124 1.8394865 2.1735106
0.33536184 0.5070613 1.3636649 1.0538185 1.3902951 1.4601791 2.4333057 0.66786325
1.1017838 1.4461731 0.30462673 1.8695087 1.7336565 1.155753 0.43714377 0.9432298
0.46735814 0.52808 1.4176006 4.7334433 0.6345639 0.8947471 4.8910203 0.5963592
0.53872466 0.81728125 0.62695277 1.1624022 2.8607416 2.4410958 1.4531128 1.7736026
0.9110383 1.7179807 0.8234258 0.9372388 1.0664552 1.9295024 0.46254194 3.9295151

feature_layer.1.bias f4 [256]
00000000: dac1 bf3d 43e3 d13d ae49 45bf d5b4 0fbf
00000010: e22e 67be 82f7 9d3e d2be 78be a75c b2bb
00000020: bbc6 1cbe 59f3 953d f17c 19bf 65f7 7a3e
00000030: 7537 e0be c0f4 3dbe 9246 0bbd fe79 bbbe
00000040: a9b3 dfbc af0b 14bf ac21 14be c836 30bf
00000050: 7858 9bbc 93f8 5cbf c9c6 063f bf39 82be
00000060: e40b d1be 8b3b edbe 504d e03b 4ca6 ac3e
00000070: f27b f93a 0ef3 0cbf 6805 5abd e4bc b1be
00000080: 932a b53e 2d0d 9a3e 7407 7dbe b5d2 113e
00000090: 980f f8bd f463 6dbd fe36 d0bd 7f6b 23bf
000000a0: c9e1 5dbf ea4d 953d 6bcb 8a3e fc10 77be
000000b0: 56ac 61be 95ab 44bf eeae 343e 145b 293e
000000c0: 66a1 dbbe 5173 27bf 9e62 55bd f222 0e3d
000000d0: 6bd2 59be db12 f9be dab6 bb3e 4a7f f73e
000000e0: 4305 cfbe ab52 d13c a489 18be 0e0d 2abd
000000f0: db54 12bf f961 943d b664 ffbe 002a dfbe
00000100: fff0 80be 3553 193e 09fa 333d 34db 98bd
00000110: d4c0 7dbd 50b0 ba3e 1345 483e 6910 04bf
00000120: 54e7 60be 73cc b53e f4eb 24be eb66 833e
00000130: 0d37 89be 4034 9fbe d490 24be 8c49 2fbd
00000140: e672 c83d 2fcf fcbe ee76 15be 2b86 e6bd
00000150: 8be9 13bf 6149 9dbe 036e 00be 7c07 ae3c
00000160: a126 97be d1a2 603e 72b3 923e 66dd 343d
00000170: 0b38 04bf 2b7b 36bf f1a7 a2be 339f 503d
00000180: 781d 423e db02 96be 4f8e babe d708 2ebf
00000190: 2ef2 f1be 258e 733e 14d6 b1be 0c11 32bf
000001a0: c730 33be 4a5e aabe 42dd 843d 437e f63e
000001b0: 4ccb a43d 13f5 06be 3044 683b 2e7c f9be
000001c0: 34f1 e3be 7afd 19bf 4447 66be ab9d 873c
000001d0: ca97 f3be c6a8 77be 9ef8 b33e 456e 35be
000001e0: 0b1a ecbd 3b87 45bf 07a6 65be f012 29bf
000001f0: 984b 13bf 6679 8ebd b78b 53bf 26bf 633e
00000200: 01a6 15bf 8250 be3e a944 75be 5a08 873e
00000210: c1c1 7cbd 3f84 b8bc f9d8 553d e4f9 bbbe
00000220: 755d 173e 27d6 17bf 7440 2fbe c1ec 0abe
00000230: 92e0 a7be a84d 623e c6c0 f2bd d3e9 8bbe
00000240: 5530 f7be 46e0 76be 20b1 a2be 964d 78be
00000250: 2c7e 70bf 33d5 83be 5b31 a13c f5cf 23bf
00000260: c5af c9bd 0b69 95bc dea4 943e 8a51 0dbf
00000270: 6f8e ce3b 1f78 9e3e 0b48 1a3d 6764 543e
00000280: 63a5 1cbe c11e 923e b33e 063d a85d 86be
00000290: 389e 98be 3115 89be a473 97be 6f2c 14be
000002a0: 29ab 723e 5710 00bd 0832 2abe 4fcf da3e
000002b0: dde4 16bf f706 1fbf 7d28 eebe e8e0 da3d
000002c0: e601 92be a504 c2be a79e f9bc f2b8 073f
000002d0: 5dfc 1dbf 50b7 b7bd db80 4fbe 89be 183e
000002e0: 2a06 68be 6497 aabe c37d 4bbe c17a 683c
000002f0: fc67 f7be 92b3 c1bd e301 d8be 5101 ab3e
00000300: 2896 f9be 2eb8 a3bd 1c58 943e 7633 a83e
00000310: 13fb 823e 05ed e2be 3797 4dbe 025a ebbd
00000320: 0a00 cdbd a51a 85be 01e6 d3be 2b14 9bbc
00000330: 2e46 01be d5ee 14bf 0568 f1be f66c a0be
00000340: c901 d33d 1f9d 053f 3c29 5d3e 9171 9cbe
00000350: 5f3e dcbd af31 f7be 0da1 0bbe 22bc 573e
00000360: b08d 22bf 3a6c 14bf a45c a5bd 285f 143e
00000370: bea1 74be 7205 99bd 2f17 143e f419 90be
00000380: 7ef4 71be 25cf e9bd 0728 39bf 45bb 833e
00000390: a825 9a3d a89c 99be 7d51 f4be 5dcf b2be
000003a0: 4a74 cb3c 9952 0cbf 9b4f f5bc 1e06 a83e
000003b0: e3d7 9bbe 87a8 42be 7649 d33e 38b3 e3be
000003c0: 50b9 1abf 8d93 26be f52f aebe b369 3bbe
000003d0: 13d4 813e 0d7e 82bc f9a3 a4be 22a0 16be
000003e0: fb61 7cbe dc37 df3c d295 89be f5da 90be
000003f0: aa78 a6be b9dd 9a3e 4c35 27bf 8df5 0f3f
0.09363146 0.10248425 -0.7706555 -0.561353 -0.22576478 0.30852896 -0.24291542 -0.005443174
-0.15310185 0.073218055 -0.5995627 0.24508436 -0.4379231 -0.18550396 -0.034002848 -0.3661651
-0.027307348 -0.5783033 -0.1446597 -0.6883359 -0.018963084 -0.86316794 0.5264707 -0.25434682
-0.40829384 -0.4633449 0.006845154 0.33720624 0.0019034131 -0.5505837 -0.053227812 -0.34714425
0.35384044 0.30088177 -0.24709874 0.14240535 -0.12112349 -0.05795665 -0.10166739 -0.638359
-0.86672646 0.072902516 0.2710832 -0.24127573 -0.22038397 -0.76824313 0.17644855 0.1653865
-0.42896575 -0.65410334 -0.052096 0.034701295 -0.21271674 -0.48647198 0.36662942 0.483393
-0.40433702 0.025552114 -0.14896256 -0.041516356 -0.5716073 0.07245249 -0.49881524 -0.4358673
-0.25183865 0.14973147 0.043939624 -0.07463685 -0.061951473 0.3646264 0.195576 -0.5158754
-0.21963245 0.35507545 -0.16105634 0.25664458 -0.26799813 -0.3109455 -0.16070873 -0.04279475
0.0978754 -0.4937682 -0.1459615 -0.11256059 -0.57778233 -0.30720046 -0.12541966 0.021243803
-0.2952166 0.2193711 0.2865253 0.044156455 -0.51648015 -0.7128169 -0.31768754 0.050933074
0.18956554 -0.29299054 -0.36436698 -0.6798224 -0.4725508 0.23784693 -0.3473364 -0.6955726
-0.17499076 -0.33275062 0.06487514 0.48143205 0.08046588 -0.13179426 0.0035441034 -0.48727554
-0.4451996 -0.601524 -0.22488123 0.016554674 -0.47576743 -0.24185476 0.35150617 -0.17717846
-0.11528405 -0.7715947 -0.22426616 -0.6604452 -0.5753722 -0.06956749 -0.8263506 0.22240886
-0.58456427 0.37170798 -0.23951973 0.2637356 -0.061708216 -0.022523997 0.052208874 -0.3671409
0.14781745 -0.59311146 -0.1711443 -0.13566877 -0.3278852 0.22099936 -0.11853175 -0.2732683
-0.48279062 -0.24108991 -0.3177576 -0.24248347 -0.93942523 -0.25748596 0.019676855 -0.6398919
-0.098479785 -0.018238565 0.29032034 -0.55202544 0.0063036005 0.3095102 0.03766636 0.20741425
-0.15297465 0.28539088 0.03277464 -0.2624333 -0.2980821 -0.2677398 -0.29580414 -0.14470075
0.23698105 -0.031265583 -0.16620648 0.4273629 -0.5894297 -0.6212 -0.46515265 0.10687429
-0.28517073 -0.37894168 -0.03047116 0.5301658 -0.617132 -0.08970511 -0.20263998 0.14916433
-0.22658601 -0.33318627 -0.19872193 0.014189423 -0.4832152 -0.094580784 -0.4218894 0.33399442
-0.48747373 -0.07994114 0.28973472 0.32851762 0.2558218 -0.44321457 -0.20077215 -0.11491777
-0.10009773 -0.2599689 -0.41386417 -0.018930515 -0.12624428 -0.5817693 -0.47149673 -0.3133313
0.10303075 0.5219287 0.21597761 -0.30555394 -0.10754084 -0.48280093 -0.13635655 0.2106786
-0.6349745 -0.5797764 -0.080743104 0.14489424 -0.23889825 -0.07471742 0.14461969 -0.281448
-0.23628423 -0.11416463 -0.723267 0.25728813 0.075267136 -0.30002332 -0.4771842 -0.3492383
0.024835724 -0.54813534 -0.029945185 0.32817167 -0.30438146 -0.190096 0.41266984 -0.4447267
-0.60439014 -0.16267224 -0.34020963 -0.1830204 0.25357112 -0.015929246 -0.3215635 -0.14709523
-0.24646752 0.027248316 -0.26872116 -0.2829205 -0.32513934 0.30247286 -0.653157 0.56234056

feature_layer.4.weight f4 [128, 256]
00000000: 45f7 303f d5ab f13d 3bc5 d63e 33c7 283e
00000010: 8717 fd3e 3499 b1bf 8880 98bf 09aa e53e
00000020: c861 0b3f f504 b6be 9b01 06be 6605 db3e
00000030: b3f4 23be 285f 47bf d764 b2bd 2a7f 94bf
00000040: 972b 813f 60bd 2fbe 0551 b33e 4788 073f
00000050: d18e a53d ef5b f43e 83a3 3b3f 0dd3 fc3e
00000060: f3fe b1be 283e 6c3f 7f2c 1e3e c5ab 183f
00000070: 8a04 e0bd a00d f03e bd91 0f3f 1b5f 11bf
00000080: 3622 04be acf4 023f db76 0e3e 99cf c93e
00000090: 3922 d43e 22f4 993e 8c72 133f f1f0 1d3f
000000a0: b091 003c 0ba0 60bf 3fe7 e03e 4a44 b13d
000000b0: 8749 f8be 6572 953e 4350 a6bf b676 79bf
000000c0: 84d5 553e 8516 a13e 9af9 1ebf f5e4 213f
000000d0: 547c 09bd 9c84 f33d 7be3 44bf e0b7 893e
000000e0: 0075 443e 8ae7 3c3e bb08 1d3d b6dd 0dbb
000000f0: 8f84 6ebe 9ed1 79bf fb03 cd3e abb4 f3bd
00000100: f9fe 553e 8792 a33e 40b0 0d3f bda8 56be
00000110: 7686 723e 1b3f 643f 635f 053f 29db c03e
00000120: bcdb 063f 2d98 013f ae18 823f ac93 b63e
00000130: 1500 0ebb 4f78 f03e df41 933d 7277 b03e
00000140: f7b9 8bbc c65c 473e c621 8e3e b085 223e
00000150: 935d c0bf 9aa3 813e 19e9 f43d ab2c 813e
00000160: f87d 8b3c 7595 873e 3559 56bf 58e6 bc3e
00000170: 97e3 fb3e 1378 613e 69e5 c03d 6e7d 323f
00000180: 7388 003f 5693 4cbe 45c6 033f ba4b e23e
00000190: 97cc e53d 366a fe3f 9b5e acbf cc75 933e
000001a0: 120b f43e 8bdb 953e 51ee f43e d20d 603e
000001b0: f977 7b3e 7b35 6dbd e45e a1bf cce8 c63e
000001c0: 8d36 353e caa4 c03e 5f62 833e dc24 013f
000001d0: ed01 af3e c8b1 623d 7979 383e fbec d2be
000001e0: d98e 4cbf e52e e03e a60e 9e3e cb05 23bf
000001f0: e48e fa3d d9fe 263e a44b ba3e 541e 9a3d
00000200: 8fbc 513e b540 953e 83f3 4d3f 9001 b53e
00000210: 2408 84bd a2f4 913e 5bb8 533e d960 d23e
00000220: 3a3a 053f 702b c73e 859e 093f edf5 7e3e
00000230: 574e 343d afd0 43bf 5c97 ffbe e730 013f
00000240: 1e62 bebb 053d f1be 37e1 983e 4425 97be
00000250: b3ba e6bd eb1c 04bd cec1 15bf 7553 f23e
00000260: 02cf 943e c1d9 0e3f cdda 5abf bb2c bf3e
00000270: c15b f93e ae55 e33d 7b2c d1be fbb7 a1be
00000280: f80e 2abf b504 0fbf 343e 823e ae92 9abf
00000290: 1e47 063e 4894 adbd be8a 49be bfef 2c3f
000002a0: 37df bc3e cdba d23e 2a2e 7abf 5cb9 79bf
000002b0: 9c9f 933e 39c0 963e 7637 b1bf b7d5 11be
000002c0: bb9e b93e a955 40bd 614d 7f3e 8cc6 1b3f
000002d0: 1c90 b03e f6b2 fa3e 55af f4bc 090a f63f
000002e0: 7c27 963e c17f 2bbf 0d74 4e3e e403 283f
000002f0: 5109 773e 0e48 dd3e 6a75 febe 0f6e a23e
00000300: c003 993e 3f4d 223f 144b 0cbf a942 e93d
00000310: 0425 82bf 96b5 533e d511 483f 6371 703e
00000320: 26fc 093f 1fa7 1e3f fa2f 5ebf b197 dc3a
00000330: f6a7 f63e b38b 013f d1b1 d83e 509b 723d
00000340: ec3d 893f 0fd9 8b3f d335 86bf 2f4c e83e
00000350: f46a a43e b1fd 013f d3bc 8e3e 30bf 683e
00000360: e68d abbd f12b 1cbf 2ee8 4dbe 991e 013e
00000370: ab3f 9c3e 24e8 68be d22a de3e c730 d53b
00000380: 191d 83be 14ca 1f3f 88c4 bf3e 4f8f 2d3f
00000390: 394f e73e 02fa 963e f7ff 6a3e 7092 aabe
000003a0: 31a9 153f 9f63 e33e 0960 a0bf ba4b a1be
000003b0: 41c4 4dbe f9a3 8d3e 6747 e2bd b7e9 08bd
000003c0: 25d3 d23e 7e9f 733d 30ba 9a3e 917e 993e
000003d0: abf0 6abe bad3 fd3e b7c2 4c3e 488b 103f
000003e0: 153b 0c3f 847c 2f3d 7ba6 af3e 9501 073f
000003f0: 6b50 f73e eb9a 893e fc05 183e 85e3 5b3e
0.69127303 0.118003525 0.4194735 0.16482238 0.49432012 -1.3874879 -1.1914225 0.4485629
0.5444608 -0.35550657 -0.1308655 0.42777556 -0.16011314 -0.7787957 -0.0871064 -1.1601307
1.0091428 -0.17162085 0.3502275 0.5294232 0.08083881 0.4772639 0.73296374 0.4937977
-0.34764823 0.9228234 0.15446661 0.596371 -0.10938366 0.46885395 0.56081754 -0.56785744
-0.12903675 0.5115459 0.13912527 0.39416197 0.4143236 0.3006907 0.5759666 0.6169577
0.007847235 -0.87744206 0.43926427 0.08655603 -0.48493597 0.2918884 -1.2993244 -0.97446764
0.20882231 0.31462494 -0.6209961 0.63239986 -0.033565834 0.118905276 -0.7690961 0.26898098
0.19185257 0.184477 0.038338404 -0.0021647043 -0.23292755 -0.97585475 0.400421 -0.11899694
0.20898046 0.3194773 0.5534706 -0.20962806 0.23684105 0.8915879 0.52098674 0.37667206
0.5267904 0.50622827 1.0163782 0.3565954 -0.002166753 0.46966788 0.07190298 0.3446613
-0.017056448 0.19468984 0.27760142 0.1587131 -1.5028557 0.2532013 0.11958522 0.2522939
0.01702784 0.26481214 -0.8372987 0.36894488 0.49197075 0.22018461 0.094187565 0.6972264
0.50208205 -0.19978079 0.5147441 0.441984 0.11220663 1.9876163 -1.3466371 0.2880081
0.47664696 0.2926906 0.4783807 0.21880272 0.24557485 -0.05791233 -1.2607083 0.38849485
0.1769659 0.37625724 0.2566099 0.5044687 0.34181157 0.055345327 0.18015088 -0.41196427
-0.7990547 0.43785778 0.3087055 -0.63680714 0.122342855 0.16308154 0.36385834 0.07525316
0.20482086 0.2915093 0.80449694 0.35352755 -0.06446865 0.28506953 0.20675795 0.41089514
0.5204197 0.38900328 0.53757507 0.248985 0.044020023 -0.764903 -0.49920166 0.50465244
-0.0058100363 -0.47116867 0.29859325 -0.2952062 -0.11266079 -0.03225414 -0.5849885 0.47329298
0.29064184 0.55801016 -0.85490113 0.37338814 0.48702815 0.111003265 -0.40854248 -0.31585678
-0.6642909 -0.5586656 0.25438082 -1.2076013 0.13113067 -0.08475548 -0.19681832 0.67553324
0.3688905 0.41158143 -0.9772669 -0.9754846 0.2883271 0.2944353 -1.384505 -0.14241682
0.36253914 -0.046956692 0.24931861 0.60849833 0.34484947 0.4896466 -0.029868761 1.9221812
0.29327 -0.6699181 0.20161457 0.65630937 0.24124648 0.43219036 -0.49698955 0.31724593
0.29885674 0.6339912 -0.5480206 0.113896675 -1.0167546 0.20674738 0.7815221 0.23480754
0.53900373 0.61973757 -0.86791956 0.0016829876 0.4817502 0.5060379 0.42323163 0.05923015
1.0722022 1.0925616 -1.0485176 0.45370623 0.3211285 0.5077773 0.27878436 0.22729182
-0.08376674 -0.6100455 -0.20108101 0.12609328 0.30517325 -0.22744805 0.43392044 0.006506059
-0.25608137 0.6241772 0.3745463 0.67796797 0.4517763 0.29487616 0.22949205 -0.33314848
0.5846129 0.44411942 -1.2529308 -0.31503087 -0.20094396 0.27664164 -0.11048775 -0.033426013
0.41176715 0.059478275 0.30220175 0.29979375 -0.2294337 0.49575597 0.19996153 0.56462526
0.5477765 0.042843357 0.34306702 0.5273679 0.48303542 0.26876006 0.14846033 0.2147351

feature_layer.4.bias f4 [128]
00000000: b5f5 32be e3ff 093f 2033 753e 259b 003f
00000010: 4f23 c43e 3d03 1c3f cec9 c53e dbab 22bf
00000020: 8149 343f 2f1c 123f 90d1 24bf f334 813e
00000030: cf09 e1be 408b 3bbd 82f0 8dbf bb3b 51bd
00000040: a0b1 da3e 4842 0a3f bd9e 533e d8ff cabd
00000050: 5873 923e 5528 3d3f 4618 57ba c610 1bbf
00000060: c32e 803d f1e3 8d3e 96b7 6a3e 1189 8ebe
00000070: d048 0b3f 1630 99bf 03bd 193e e612 313f
00000080: 5f09 cf3e 3676 423d e18b 10bf e709 003f
00000090: a3a2 ae3e d8fd e73e 68cd 4c3e d4e7 b2bd
000000a0: 0e73 973e ba00 d93e b307 a43e fe8c 3fbe
000000b0: e9a8 8a3f 98b7 223f 8808 48be cc99 803f
000000c0: 94de ec3e ac6f 85bd d9e0 43be 2c82 413e
000000d0: dd5b a83d 2bfa 453f 2c59 2e3f cc7d 423f
000000e0: 743c 41be ee01 f7bd 1373 51be cace a03e
000000f0: 7c66 66be 9a78 f23e 220b 073f e6de a73e
00000100: 27a4 2b3f 9242 453e 73d4 903e 0bb5 793f
00000110: 3a14 20be 0e32 123e 718e 253e 7606 94bc
00000120: 6895 1f3f 2321 4cbe 7b34 c13e 46b6 a63f
00000130: 6131 afbe beb7 473e 02ed fc3e db99 263f
00000140: 9837 83be dbf0 153f 03cf de3e 9962 023f
00000150: 910d 643f fef6 7fbe b2f9 6e3f 275c a0be
00000160: 279c d63d 1045 be3e f5d7 143e 54d2 ab3d
00000170: 69d7 c7be b14e 81be 1db5 ff3e cec6 dfbc
00000180: a5c9 6dbe 6035 e83e 0809 f23e ce00 303f
00000190: 6194 e53e 0f9c eb3e 611e 9f3e 424e b3be
000001a0: bebd ae3e cc47 303f 4b10 2d3e 877e 333e
000001b0: 27c1 813e bf9a 8a3f b89f 123d 80af 823d
000001c0: 75f2 bf3e 7a9c 8bbc 7662 0b3f 565d dabe
000001d0: 37cd fa3e 41c2 103e ccb5 113f 6d7c 4e3e
000001e0: 9cca b53e 0c15 30bf 8354 223f efc2 263f
000001f0: d029 46be aba5 5b3f 53f6 cc3e edaf 793f
-0.17476542 0.5390608 0.23945284 0.5023673 0.38308188 0.6094244 0.38630527 -0.6354348
0.7042466 0.57074255 -0.64382267 0.2523571 -0.43952796 -0.045787096 -1.1089022 -0.051082354
0.42713642 0.5400739 0.20666023 -0.099120796 0.28603625 0.73889667 -0.0008205216 -0.6057247
0.06258919 0.27712968 0.22921595 -0.27838948 0.5440798 -1.19678 0.15013508 0.6916946
0.40436837 0.047476016 -0.5646344 0.5001511 0.34108457 0.45310855 0.20000231 -0.08735624
0.29579967 0.42383367 0.32037124 -0.18706128 1.0832797 0.6356139 -0.19534504 1.0046935
0.46263564 -0.0651544 -0.19128741 0.18897313 0.082206465 0.7733485 0.68104815 0.759732
-0.18870717 -0.12060915 -0.20454054 0.31407768 -0.22500032 0.47357637 0.5275136 0.32787246
0.6704735 0.19263676 0.28287086 0.97541875 -0.15632716 0.14276907 0.16167618 -0.018069487
0.6233735 -0.19934516 0.37735352 1.3024375 -0.3421736 0.19503686 0.49399573 0.65078515
-0.25628352 0.5857064 0.43517312 0.509317 0.890832 -0.24996564 0.93349755 -0.31320307
0.104790024 0.37162066 0.14535506 0.08389726 -0.39031532 -0.2525535 0.49942866 -0.027316477
-0.23221453 0.45353222 0.47272515 0.6875123 0.44839767 0.460175 0.31077865 -0.35020643
0.34129137 0.68859553 0.16900747 0.17528735 0.25342676 1.0828475 0.03579685 0.0638113
0.37489668 -0.017042387 0.54447114 -0.42649335 0.48984692 0.14136602 0.56918025 0.20164652
0.3550614 -0.68782115 0.63410205 0.65141195 -0.19351888 0.85799664 0.4003168 0.97534066

feature_layer.5.weight f4 [128]
00000000: 42d0 5b3f adbb 7a3f d7b9 0340 d7af 2a3f
00000010: e6c9 333f dbc1 4b3f 23e4 303f b32c 883f
00000020: 5d33 543f 4ef9 843f a056 913f 5172 ec3f
00000030: 33a9 f13f 7bc1 8c3f e00c b63f 0497 a83f
00000040: d4d9 923f 5a3a 2c3f 4962 513f bf59 f83f
00000050: 9950 0f3f 3da8 513f 8ced 853f e294 0c40
00000060: ec48 ca3f f038 233f b6d8 393f 1cec 9f3f
00000070: 06cc 393f d40e 8a3f 2d0c 673f 4911 153f
00000080: 04a2 413f 05c5 333f 4efe f33f 155d 2e3f
00000090: 6983 763f 44b7 8b3f 8dc5 3e3f 3978 a83f
000000a0: 82ed 693f 22ad 1b3f a2cd cf3f e5b5 0540
000000b0: 551b 343f fff3 603f 339d bb3f 3618 373f
000000c0: 9309 333f 12ba 0f3f cf06 4b3f 905c 353f
000000d0: 05f1 913f a3d1 3f3f caa9 433f 3bb8 333f
000000e0: 05a3 213f 7106 8c3f c20f 913f 68a2 9c3f
000000f0: 67a6 5c3f bea6 3b3f 0562 0e3f 36e9 1d3f
00000100: 0a12 423f 8d4f 443f aff0 5e3f cf9b 9b3f
00000110: 6dac 2b3f c35a 8c3f d17b a23f baee 343f
00000120: b6f0 963f ce96 293f cc9d b43f 54e3 373f
00000130: 07f3 673f a47a 843f 13cf 923f a034 023f
00000140: 09d3 a63f 2cdd 403f 0f82 143f f53c 463f
00000150: c603 5f3f abc2 af3f b180 353f 2240 bd3f
00000160: 2438 813f 131b 773f c051 6d3f c29a 7e3f
00000170: fc08 fb3f 88d6 ac3f 6a39 6c3f 2d13 233f
00000180: 91e5 9d3f 0bcc 4a3f 6fab 813f 2f6f 823f
00000190: 9efd d53f 4398 a63f b996 b63f 37cc bd3f
000001a0: 056f 8c3f ae31 263f 83b3 323f fdf4 c03f
000001b0: 9aa0 743f 50e6 1d3f 4cd1 f63f 4e75 de3f
000001c0: 8d63 813f 895c 0340 ab27 193f 5a1a 6d3f
000001d0: 755b 303f 1cf6 963f 01b5 813f 1d63 693f
000001e0: e7cd 4d3f efbf 0440 3880 823f 8ae9 023f
000001f0: 0989 723f 1c67 1b3f 760f 673f 36b7 223f
0.8586465 0.9794262 2.0582178 0.6667456 0.7022995 0.79592675 0.6909811 1.0638641
0.82890874 1.0388582 1.1354561 1.8472387 1.887976 1.0996546 1.4222679 1.3171086
1.1472726 0.6727654 0.81790596 1.9402388 0.5598236 0.81897336 1.0463119 2.196587
1.5803504 0.63758755 0.725963 1.249393 0.7257694 1.0785775 0.90252954 0.582295
0.7563784 0.702225 1.9061983 0.6811078 0.96294266 1.0915303 0.7452019 1.3161689
0.91378033 0.60811055 1.6234629 2.089227 0.70354205 0.8787231 1.4657348 0.7152132
0.69936484 0.56143296 0.79307264 0.70844364 1.1401678 0.74929255 0.7643095 0.7020299
0.63139373 1.0939466 1.1332934 1.2237062 0.8619141 0.73301303 0.55618316 0.61683977
0.75808775 0.76683885 0.87086004 1.2156924 0.67059976 1.0965198 1.2694036 0.7067677
1.1792209 0.66245735 1.4110656 0.7183125 0.90605205 1.0349927 1.1469444 0.5086155
1.3033153 0.7533748 0.58010954 0.77436763 0.8711513 1.3731283 0.7089949 1.4785197
1.0095258 0.96525687 0.92702866 0.9945489 1.9612117 1.350297 0.92275107 0.63701135
1.2335683 0.79217595 1.0130442 1.019018 1.6718023 1.3015217 1.4264747 1.4827946
1.097138 0.64919555 0.69805163 1.5074764 0.9555756 0.61679554 1.9282622 1.7379549
1.0108505 2.052523 0.59826154 0.92618334 0.6888955 1.1793857 1.0133363 0.9116686
0.8039231 2.0742147 1.0195379 0.511376 0.9474035 0.6070421 0.90257967 0.6356081

feature_layer.5.bias f4 [128]
00000000: 4059 0bbf 61b7 03bf 3436 c9be 9805 2bbf
00000010: 26a6 fdbe f33e f3be f0e8 34be 8c22 94be
00000020: 5a6a 18bf b443 21bf 3149 b7be 03de 03bf
00000030: 0a07 62be ce45 cdbe fcd6 17be 330e 96bf
00000040: 3d48 92be 3be3 3ebf 0b39 00bf c36b 99bf
00000050: de45 23bf 113f 13bf 7d4c 33bf ef37 93bf
00000060: 6045 9abf fca3 02bf a3ba dbbe f888 e0be
00000070: 5fba f9be c6d5 5dbe 6067 53bf 666b 70be
00000080: 6ab4 4abe c003 5dbf 1b06 6ebc 690c 24bf
00000090: 5580 0abf 27b0 ccbe 0c05 4cbf 4796 e1bd
000000a0: 26a3 3dbf cfbd 30bf 1d82 f7be 0fbd 09bf
000000b0: b7b7 f4be 2899 15bf c8e5 38be 88f5 57bf
000000c0: cd71 3bbf fd4f 2ebf 0cc6 01bf f166 3bbf
000000d0: 1875 39bf 86fb 3dbf 0587 41bf 7ee5 63bf
000000e0: fb64 22bf c1cf a6be cdda 92bf bff2 7ebf
000000f0: da6b f8be 3fa0 18bf db84 2fbf 8097 32bf
00000100: b0f1 9bbe 9072 5abf 42af 6bbf 276a 3abf
00000110: c264 3cbf baa4 71bf 6264 93bf b19d 1ebf
00000120: 7289 a6be b26a 16bf c04a 3fbe 61fb 0ebf
00000130: 9e5c c5be 931b 90be cdd4 d9be 0142 60bf
00000140: 033e 8fbf 815e 0dbf 29d9 67bf f112 17bf
00000150: 45e3 3cbf 07c2 67bf 67be 5ebf b26d 7bbf
00000160: 2dcb 41bf ab07 17bf 63ef 39be 41d8 1abf
00000170: 0e0b 953d bb4b 72bf f38e 78bf 19e8 afbe
00000180: 2c88 95be a508 62bf a859 c5be 92b6 41bf
00000190: dfc3 d8be 17fd 2fbf 848a 87bf c5c0 92bf
000001a0: 964a 84bf 2964 40be 6267 22bf 4899 acbe
000001b0: f7e6 26bf a38a 77be dcfc 9abf 0920 16bf
000001c0: 7679 5cbf 98ba 09be 13e0 20bf 12aa e3be
000001d0: 4f3e 0ebf e305 92bf 582b b9be d687 c3be
000001e0: 3960 6dbf 980a c5bf 7810 0fbf a371 54bf
000001f0: a3d0 75bf 83d5 f8be cab6 e2be d829 84be
-0.5443306 -0.5145169 -0.39299166 -0.6680541 -0.49540824 -0.47508964 -0.17666984 -0.28932607
-0.5953728 -0.6299393 -0.35798028 -0.5151064 -0.22072998 -0.4009232 -0.14828104 -1.1723083
-0.28570738 -0.74565476 -0.5008704 -1.1986011 -0.63778484 -0.57518107 -0.70038587 -1.1501445
-1.2052422 -0.5103147 -0.4291583 -0.438545 -0.48775002 -0.2166358 -0.8257961 -0.23478469
-0.19795385 -0.8633385 -0.014527823 -0.64081436 -0.5410207 -0.39978144 -0.796952 -0.11014991
-0.7407707 -0.69039625 -0.48341456 -0.53804106 -0.47796413 -0.5843682 -0.18056405 -0.84359026
-0.7322052 -0.680908 -0.5069282 -0.7320395 -0.72444296 -0.7421192 -0.7559665 -0.8902205
-0.63435334 -0.3258038 -1.1473023 -0.9958915 -0.48519784 -0.59619516 -0.68562096 -0.6976242
-0.3045783 -0.8533106 -0.920643 -0.72818226 -0.73591244 -0.9439198 -1.1515009 -0.6195937
-0.32526737 -0.58756554 -0.18680859 -0.55852324 -0.38547224 -0.28146037 -0.42545167 -0.87600714
-1.11908 -0.55222327 -0.90565735 -0.5901328 -0.73784286 -0.9053044 -0.8700928 -0.98214257
-0.75700647 -0.58996075 -0.18157725 -0.6048623 0.07277499 -0.94646806 -0.97093123 -0.34356764
-0.29205453 -0.8829444 -0.38544965 -0.75669205 -0.42336938 -0.6874556 -1.0589147 -1.1465079
-1.0335262 -0.18788208 -0.63439 -0.33710694 -0.65196174 -0.2417398 -1.2108417 -0.5864263
-0.86122835 -0.13450086 -0.6284191 -0.4446569 -0.55563825 -1.1408046 -0.3616588 -0.38189572
-0.9272495 -1.5393858 -0.55884504 -0.82985896 -0.9602148 -0.48600397 -0.44280082 -0.25813174

value_stream.0.weight f4 [128, 128]
00000000: c3d7 a13e e4fa 1ebf 12f8 c3be c3ab d2bc
00000010: 6a7d 0f3f 9f74 72be 70c4 8ebd fddf d13e
00000020: 1ac9 7bbe e425 9eba 2a61 88bd a4fe 4c3d
00000030: f200 083d b2fc b13e 10f3 5f3f 92d3 5c3f
00000040: 5cb3 853e f441 da3e 14c4 c3bd 2a7d 5b3f
00000050: 8116 013f b679 9e3e 9e4b 6a3e 9453 0e3f
00000060: 9ec4 ec3e 4d80 313f 5a7a 36bf 0765 a3be
00000070: 9851 c7bd 06bd 3f3e 8de5 c0be 7a63 893e
00000080: 2af1 843e 5aa3 013f b652 a93e 5180 e4bd
00000090: 5a74 073f dc9c 0a3f e6dd 98bd 2a39 b03d
000000a0: cd0d 1c3f a950 b53e 6a7f b43e 7b00 a73e
000000b0: 5d44 9c3c b07b 7b3e 036f 3c3f 7fff f0bc
000000c0: e3e3 583e 0591 e13e b151 9abd 3f11 e93e
000000d0: 4c0f acbe a72f a33d 76d7 0c3e 97f3 243e
000000e0: a6e8 113f b9bc 433e 1125 cdbe 7053 803e
000000f0: fa3a fe3e e68e 1f3f 9ae7 493e cb90 493f
00000100: 2f80 6c3e bbbf 813e 292a 6abe e838 43be
00000110: e8f0 8a3e 94f4 a63e 7a8c 0f3f 47e6 e93e
00000120: ea32 db3e 282f af3e 8d65 b6bc 8df3 843e
00000130: 4d45 79be a07c acbd 5db0 d73e 0312 b1bd
00000140: 7062 d7bd 8620 353f bffc babe 9509 f13e
00000150: 6ac7 0d3f 74e2 c9be 0484 7f3c 00a8 f93a
00000160: bf8d 333f e3a5 4ebf f0d9 32bd 6eb8 293d
00000170: f7c7 d03e bc31 f539 23fa a03e 5150 93bb
00000180: a2b6 983e 015c 4a3f c74b eabe cfce 09be
00000190: 0a82 df3e 4e75 f23e bf3d 6b3e 7879 fdbc
000001a0: ab76 febe f1f7 fd3e fd8d 723d 3290 2ebf
000001b0: 6871 da3e d847 7c3e c8af 513c d9c3 bc3e
000001c0: 128e f0be ca1f adbe 4586 ef3d 589c 01be
000001d0: b69c 15bf 72c5 733e fa32 42be 4c9c 95be
000001e0: c65b 33bf dc1f 93bd 0114 2f3f b75b 54be
000001f0: d895 733d f590 bd3e 7370 40bd 4ec7 cd3e
00000200: 3298 f03e f48c 2ebe 287d 953e 438f 053f
00000210: e46b ab3e 5ff0 b23e c750 fdbe a6b2 4ebe
00000220: a08d 6abe dad6 f33e f456 053f f894 eb3e
00000230: 44f5 c4be 0ed6 423e 9ee7 a83e c5a6 483f
00000240: c8e7 713e d303 4ebf e715 f53e b87f 093f
00000250: ec87 b63e 601c 0ebe 186d 99bd d6a1 443f
00000260: 09d6 233f 20c7 d43e e06b 0a3f 808d 643f
00000270: 431c 233e 6255 b93e 9336 833d 5856 9bbf
00000280: def9 dc3d 0998 19bf 8b96 be3d f8f7 3c3e
00000290: 584a 623e 3edd 853e f7eb fa3e 8d1d 53be
000002a0: 2a5e cd3c 9535 873f e586 6ebf 1602 5bbf
000002b0: 746b c8be db07 92bd 2ad5 7c3e f84c 2f3e
000002c0: 136a 6d3e a5ee eb3e f8cb dbbe 526d b73f
000002d0: 585f 08bf f8d7 803e a18d 2d3f b6cd bf3e
000002e0: d07b f13e e9af 8c3e 694e b4be e3ac 043f
000002f0: bb64 c8bf 4800 b93e 59f1 e33e 87f6 7b3f
00000300: 0448 b2bf 8452 9d3f 0d90 723f fcce 8ebf
00000310: b86b 163f 84e4 fd3e 3894 0f3f 34a4 263e
00000320: 205a bcbe e946 fc3e 45a4 b33e a46b 4bbe
00000330: 5857 05be a055 293e 3274 523e 5049 123f
00000340: 0d71 c63d b74c c93e f8ce d8be 68f0 013f
00000350: f2c0 943e 2177 283f 6e42 ed3e 807d 8b3e
00000360: a726 053f c245 02be 5be0 893e 6dc2 7d3e
00000370: b670 163e 4676 44bf 83ae 6c3e ab57 db3e
00000380: b8d0 933e cf1d 0f3f bb64 a83e e742 49be
00000390: 93fd 5fbf aae7 093e f02e 033f 0d7d 48be
000003a0: ff80 8f3e af64 c0bf f19d 4c3e 40c5 ed3e
000003b0: b60e 12bf 4578 d3be 8553 fc3e 7b9b 07bf
000003c0: 5ede d33e b4e6 623e 028b c03d 3df0 9ebd
000003d0: c05b ac3f fbcb 2b3f afb3 843e 34ed 06bf
000003e0: 3ea5 3d3f 4c58 fabe fef5 813e 4846 bb3e
000003f0: 3533 853e 6867 8bbe 2fd4 923e 7f22 a8bf
0.31609926 -0.6210158 -0.382752 -0.025716668 0.5605074 -0.236773 -0.06971061 0.40991202
-0.24588433 -0.0012065736 -0.066591576 0.05004753 0.033204027 0.34763104 0.8748026 0.8626033
0.26113403 0.42628443 -0.09558883 0.8573786 0.50424963 0.30952233 0.22880408 0.5559628
0.46243757 0.69336396 -0.71280444 -0.31913015 -0.0973236 0.1872445 -0.37675133 0.26833707
0.25965244 0.5063988 0.33070916 -0.11157287 0.52911913 0.541456 -0.07464199 0.08604653
0.6095856 0.354131 0.3525346 0.32617554 0.019075567 0.24558902 0.7360689 -0.029418705
0.21180682 0.44055954 -0.07535113 0.4552097 -0.3360542 0.07968073 0.13754067 0.16108547
0.5699562 0.1911496 -0.40067342 0.25063658 0.4965437 0.6232742 0.19717255 0.7873656
0.23095773 0.2534159 -0.22867645 -0.19064677 0.27136922 0.32608473 0.56073725 0.456835
0.42812282 0.34215665 -0.02226522 0.25967064 -0.24342842 -0.08422208 0.42126742 -0.086460136
-0.10516822 0.7075275 -0.36520955 0.47077623 0.55382407 -0.39430583 0.01559544 0.001904726
0.7013816 -0.80721873 -0.043664873 0.04143565 0.4077756 0.00046767097 0.3144084 -0.0044956584
0.29826838 0.79046637 -0.4576094 -0.13457797 0.436539 0.4735512 0.22972773 -0.03094171
-0.4969991 0.49603227 0.05921744 -0.68188775 0.42664647 0.24636781 0.012798257 0.3686817
-0.4698339 -0.33813316 0.11695532 -0.12657297 -0.58442247 0.23805788 -0.18964759 -0.29220808
-0.7006191 -0.07183811 0.683899 -0.20738111 0.059469074 0.37024656 -0.04698224 0.4019112
0.46991116 -0.17045957 0.2919705 0.52171725 0.33480752 0.34949014 -0.4947569 -0.20185336
-0.22905588 0.47624856 0.52085805 0.46012092 -0.38468373 0.19026968 0.3298921 0.7837947
0.23623574 -0.80474585 0.47868273 0.5371051 0.35650575 -0.13878012 -0.07491511 0.7680944
0.63998467 0.4155817 0.54070854 0.8927841 0.1592875 0.36197954 0.064068936 -1.2135725
0.10789846 -0.5999761 0.093060575 0.18453968 0.22098672 0.26145357 0.49008152 -0.20616741
0.025069315 1.0563227 -0.9317458 -0.8555006 -0.3914448 -0.071304046 0.2469069 0.17119205
0.23184995 0.4608051 -0.42929053 1.4330237 -0.53270483 0.2516477 0.67794234 0.37461632
0.47164774 0.2747796 -0.35216072 0.51826304 -1.565574 0.36133027 0.4452007 0.98423046
-1.3928227 1.2290807 0.94751054 -1.1156917 0.58758116 0.49588406 0.5608554 0.16273576
-0.3678751 0.4927285 0.35086265 -0.1986528 -0.130216 0.1653657 0.20552137 0.57143116
0.096895315 0.3931634 -0.42345405 0.50757456 0.29053456 0.65806776 0.46339744 0.27244186
0.52012104 -0.12721923 0.26928982 0.24781199 0.14691433 -0.7674297 0.23113446 0.42840323
0.28870177 0.5590486 0.3288935 -0.19654427 -0.874963 0.13467279 0.51243496 -0.19578953
0.28028104 -1.5030726 0.19982125 0.46439552 -0.570537 -0.41302696 0.4928247 -0.5297162
0.4138059 0.22158319 0.09401514 -0.077606656 1.34655 0.67108124 0.25918338 -0.52705693
0.74080265 -0.4889549 0.2538299 0.36577058 0.2601563 -0.2722733 0.28677508 -1.3135527

value_stream.0.bias f4 [128]
00000000: b31b 2d3d b32f 0f3f bb8b 07bd fbb0 443e
00000010: e239 d13e 7a5a b33e 44fd 893e 2545 8f3e
00000020: 6c50 f0ba 6bb9 063e 57a5 b93e 5f41 113f
00000030: c7b2 1b3f 8204 cd3e 28f1 803e 6dfa 2c3e
00000040: e464 9b3e a500 8e3e 831d 14bd 8f98 cd3d
00000050: 087f cf3d a6d5 6d3e ec68 c23e 930e a63e
00000060: 0f09 0e3f aa9d 1a3e 60d0 973e e281 513e
00000070: b911 2a3e a69a af3d e157 cb3d a7fd 173f
00000080: 5551 113f 3629 c33e 41cc 043f f3ce 113f
00000090: a43e 383e f5c1 e23e 7e8a d53e 96f7 093f
000000a0: 7cfb ce3e af94 6e3e 94ac e0be aac8 a73e
000000b0: 64ff a33e 7336 d53e 5a42 88be ba90 033e
000000c0: 953a f43d ee67 7e3e 9261 de3e 193d 813e
000000d0: c816 033e 2390 f73e 9c3f 783d 8499 d83e
000000e0: 6357 273e d131 b8bc 09f0 37be 6eef 8ebe
000000f0: d3c1 b93e 9ea9 0a3f 4b4d 963e 9f5f e63d
00000100: 69f7 023f 0c6a 023e 554d ae3e 881b 22bd
00000110: 3147 453e bd1e a93e 727f bf3d 3d90 da3e
00000120: 13b5 ee3e 7fb1 893e fdf7 3b3e 7f37 a43e
00000130: 9262 963d 03c3 ca3e 77cb 9a3e b637 4f3e
00000140: f3bd 96bd ac2c d73d cdd8 ee3e 471e e13e
00000150: 1600 653e b7da 7d3e 887a 063f d737 733e
00000160: e78e 08be 5aac 033e c486 4b3e 988b f7bc
00000170: 6087 9e3e 51cd 083f 553c e3bd 94ed 81be
00000180: 3e28 683e 1c2e 453e ec57 de3e 76cd 0e3f
00000190: a9ea 233f f4ae 203e 774b bc3e f994 843e
000001a0: 8cad 863d ab1e 263f 6a37 db3e bc5c 063f
000001b0: dfe1 a13e 8dd5 eb3e 417e 08be df79 d53e
000001c0: 5e88 b43e 1dc1 363e 0488 efbc 7b3b f83e
000001d0: b7b7 8b3e 4ba7 363d 15db 3a3d fdcb 193e
000001e0: b88d 793e 2cfa 183d 3196 133f 8f05 0b3e
000001f0: 5059 8b3c 7e33 9b3c c741 4dbd f6f0 50bd
0.042262744 0.5593216 -0.03309224 0.19208138 0.40864474 0.35029966 0.2695104 0.2798244
-0.0018334514 0.13156669 0.36258957 0.56740373 0.6081967 0.40042502 0.25183988 0.16892405
0.3035041 0.27734867 -0.036160957 0.10038864 0.10131651 0.23226032 0.37970674 0.32432994
0.5548257 0.15099207 0.29651165 0.20459703 0.16608323 0.08574419 0.09928871 0.5937142
0.5676473 0.3811738 0.51874167 0.56956404 0.17992646 0.44288602 0.41707224 0.5389341
0.40426242 0.23298906 -0.43881667 0.32770282 0.32030785 0.41643104 -0.26613122 0.12848178
0.11925236 0.24844334 0.43433815 0.25241926 0.12801659 0.48352155 0.060607538 0.42304623
0.16341929 -0.022484692 -0.1796266 -0.27917045 0.3628069 0.54165065 0.29355845 0.11248707
0.5115877 0.12735766 0.34043375 -0.039577037 0.19265439 0.33031264 0.0935048 0.4268817
0.46622524 0.2689323 0.18356319 0.3207359 0.073430195 0.39601907 0.30233356 0.20236096
-0.07360449 0.10506567 0.4664978 0.43968412 0.22363314 0.24790464 0.5253072 0.2375177
-0.13335763 0.12858716 0.19875628 -0.03021793 0.30962658 0.5343829 -0.11095492 -0.2537657
0.22671601 0.1925587 0.43426454 0.5578226 0.6402994 0.1569174 0.36776325 0.25894907
0.0657607 0.64890546 0.42815715 0.5248525 0.31617638 0.46061364 -0.13329412 0.41694543
0.3526029 0.17847104 -0.029239662 0.4848288 0.272886 0.044593137 0.04561909 0.15019222
0.24370468 0.037347957 0.5765105 0.13576339 0.017010361 0.018945452 -0.05011156 -0.05101105
