source_code/saved_models/DQN_Level1_BEST.pth (torch, 751803 bytes, 64 tensors)

feature_layer.0.weight f4 [256, 22]
0	0x3e71186f	0.23544477
1	0x3f0789d3	0.5294468
2	0x3e395e06	0.18102273
3	0x3ed26e29	0.4109967
4	0x3ef65928	0.48114896
5	0x3ee97895	0.4559981
6	0x3e90b709	0.28264645
7	0x3f059508	0.5218053
8	0x3eaa0756	0.33208722
9	0x3f3e660d	0.7437447
10	0x3f370c87	0.7150349
11	0x3e23c4f7	0.15993105
12	0xbf9aa9fd	-1.2083126
13	0x3e1fb1d0	0.15595174
14	0xc001aeaa	-2.0262856
15	0x3f3ac099	0.7295013
16	0x3f03e0c8	0.51514864
17	0xbec53779	-0.38518885
18	0x3eed315b	0.46326718
19	0x3f3640d9	0.711927
20	0x3f44afcb	0.7683074
21	0x3ef5932d	0.4796385
22	0x3eb6c8b8	0.3570001
23	0x3ea3988d	0.31952325
24	0x3dfc978f	0.12333595
25	0x3ea667a7	0.32500955
26	0x3f23f2d3	0.64042395
27	0x3f2e818b	0.68166417
28	0x3f3a3910	0.7274332
29	0x3c6c5109	0.014423617
30	0x3e488688	0.1958257
31	0x3f648e67	0.8927979
32	0x3f231714	0.6370709
33	0xbf05231a	-0.52006686
34	0x4000508f	2.004917
35	0x3f7ac1c6	0.97951925
36	0x401c7f68	2.4452763
37	0x3d39fdb2	0.04540796
38	0x3eec9a68	0.46211553
39	0x3d6b7b65	0.057490725
40	0x3f1f1042	0.6213418
41	0x3eee8886	0.46588534
42	0x3ee484b2	0.44632488
43	0x3f3c601f	0.7358417
44	0x3def0c7a	0.116723016
45	0xbe414581	-0.1887417
46	0xbbb70343	-0.0055851056
47	0x3ebf8942	0.37409407
48	0x3ee15b3f	0.44014928
49	0x3ef79666	0.48356932
50	0x3eec21cc	0.46119535
51	0x3eebe813	0.46075496
52	0x3d2a8d38	0.041638583
53	0x3f245855	0.64197284
54	0x3ea2d99f	0.31806657
55	0xbe2d4f08	-0.1692468
56	0x3fdfbca2	1.7479441
57	0x3f86c8a4	1.0529981
58	0x4002cc22	2.0437093
59	0xbd53d158	-0.051713318
60	0x3f0df11e	0.5544604
61	0x3eaca9e5	0.3372337
62	0x3f4192e4	0.7561476
63	0x3f18ed2e	0.5973691
64	0x3f219232	0.631137
65	0x3f0fad8f	0.56124204
66	0x3f81287b	1.0090479
67	0x3f2cd00f	0.6750497
68	0x3ef297fe	0.47381586
69	0x3f2b8dba	0.6701313
70	0x3e9643d9	0.2934864
71	0x3ea6c27b	0.32570252
72	0x3f7695c6	0.96322286
73	0x3f231dc1	0.63717276
74	0x3e1cd5bd	0.1531591
75	0x3f2b245b	0.6685235
76	0x3f11ae48	0.5690656
77	0x3ea80c03	0.32821664
78	0x3fb23043	1.3920978
79	0x3f6d5179	0.9270244
80	0x3fc2d5e0	1.522152
81	0x3ebfa55b	0.37430844
82	0x3f2050a4	0.6262305
83	0x3c79c4bb	0.015244658
84	0x3f0b32b3	0.54374236
85	0x3f2db1e7	0.6784958
86	0x3eff119e	0.49818128
87	0x3f1865d7	0.59530395
88	0x3f658412	0.8965465
89	0x3ecf7fd2	0.40527207
90	0x3f341760	0.7034817
91	0x3e2c9146	0.16852292
92	0x3ecd9fbc	0.4016093
93	0x3ead508a	0.3385051
94	0x3f4defdf	0.8044414
95	0x3e6b7b37	0.22996221
96	0x3f074b96	0.5284971
97	0x3f05c5fc	0.52255225
98	0x3ee6972d	0.45037213
99	0x3daeadc7	0.08529239
100	0x3f925d07	1.143464
101	0x3f7f6fba	0.99779856
102	0x3fc89624	1.5670819
103	0x3f5e5d42	0.8686105
104	0x3f39e74f	0.72618574
105	0x3db510cc	0.088410944
106	0x3f1a1101	0.60182196
107	0x3eea9c2a	0.4582227
108	0x3ea35480	0.31900406
109	0x3ecca7e3	0.39971837
110	0xbd11a500	-0.035557747
111	0x3da0f186	0.07858567
112	0x3f2ea261	0.6821652
113	0x3e18d5ef	0.14925359
114	0x3e96551b	0.29361805
115	0x3f17d2be	0.5930594
116	0x3e5ed312	0.21760204
117	0x3e69e795	0.22842248
118	0x3f0815ec	0.5315845
119	0x3f136427	0.57574695
120	0x3e207e67	0.15673219
121	0x3e341ffc	0.17590326
122	0x401f953a	2.493483
123	0x3f002265	0.5005248
124	0x400c514b	2.1924617
125	0x3eed090e	0.4629597
126	0x3f19c531	0.60066515
127	0x3f2cbf52	0.6747943
128	0x3f2f3b47	0.68449825
129	0x3eff7557	0.4989421
130	0x3f2c4614	0.6729443
131	0x3f04b517	0.5183882
132	0x3ef10c10	0.47079515
133	0x3f094592	0.5362178
134	0x3f06f99c	0.52724624
135	0x3e798dcf	0.24370502
136	0x3e9d9c3d	0.30783263
137	0x3f1b8948	0.6075635
138	0x3eb3d4aa	0.35123187
139	0x3ec30665	0.38090816
140	0x3eb43c66	0.3520233
141	0x3f261988	0.6488271
142	0x3f3bc379	0.7334514
143	0x3ef0bb1d	0.47017756
144	0xbf3ec1bc	-0.74514365
145	0x3f2811be	0.6565207
146	0xbf82cc65	-1.0218626
147	0x3f6e2a17	0.93032974
148	0x3e8e35ef	0.27775523
149	0xbfaaf4a4	-1.3355908
150	0x3f0adceb	0.54243344
151	0x3f4cbaac	0.7997234
152	0x3f1e7cdf	0.6190929
153	0x3f10f891	0.5662928
154	0x3eb548af	0.35407016
155	0x3eb8b9c1	0.3607922
156	0x3e51e6bb	0.20498173
157	0x3f1289e3	0.5724165
158	0x3f108960	0.5645962
159	0x3f21891e	0.6309985
160	0x3f117dca	0.56832564
161	0x3ed2c8bc	0.41168773
162	0x3eb73dc7	0.3578932
163	0x3f30fb09	0.6913305
164	0x3f192325	0.5981925
165	0x3da487cb	0.08033713
166	0x3f802a5f	1.0012931
167	0x3f54fbe1	0.83196837
168	0x3fb928a3	1.4465526
169	0x3f853a6f	1.0408458
170	0x3ea2cdf4	0.31797755
171	0x3f10093c	0.5626409
172	0x3f07f08e	0.5310143
173	0x3f051b6a	0.51994956
174	0x3f27e7b7	0.65587944
175	0x3ef43949	0.47699955
176	0x3f0da0cd	0.5532349
177	0x3f0951b7	0.5364031
178	0x3ed3dfc0	0.41381645
179	0x3e9112d7	0.28334686
180	0x3f0efcfc	0.55854774
181	0x3ec66d15	0.38755098
182	0x3ef8cf0e	0.4859547
183	0x3eb3fa30	0.35151815
184	0x3e313190	0.17304063
185	0x3f101187	0.56276745
186	0x3f143cc9	0.5790525
187	0x3e5ae46f	0.21376203
188	0xbf9a9137	-1.2075566
189	0x3e816193	0.25269756
190	0xbff79fd1	-1.9345647
191	0x3f561373	0.8362343
192	0x3f0c04ca	0.5469481
193	0x3e0ad261	0.13556816
194	0x3f04267b	0.51621217
195	0x3f1b17e2	0.6058332
196	0x3f1ca91a	0.6119553
197	0x3f1c1f8b	0.6098563
198	0x3e58b831	0.21164013
199	0x3f2a0aee	0.6642293
200	0x3e823cd7	0.25437042
201	0x3e7f194b	0.24911992
202	0x3e91489b	0.28375706
203	0x3eaa11ca	0.33216697
204	0x3e0aafb5	0.1354359
205	0x3ec2f825	0.38079944
206	0x3e8da3c0	0.27663994
207	0x3f138d39	0.57637364
208	0x3f06ad97	0.5260863
209	0x3e1a36cf	0.1505997
210	0xbf97338f	-1.181261
211	0xbd2f45a5	-0.042791028
212	0xbfdc7e26	-1.7225997
213	0x3f4881cd	0.7832306
214	0x3f28c5fe	0.6592711
215	0x3f5d0946	0.86342275
216	0x3ed879db	0.42280468
217	0x3f0484ce	0.51765144
218	0x3f4434a1	0.76642805
219	0x3f0030bd	0.5007437
220	0x3ce7591d	0.028240735
221	0x3f91cf11	1.1391317
222	0x3f59f804	0.85144067
223	0x3f09fd46	0.5390209
224	0x3f159762	0.58434117
225	0x3f2d25ee	0.67636
226	0x3efe29b6	0.49641198
227	0x3f272722	0.65294087
228	0x3f05e95f	0.5230922
229	0x3ead5e21	0.33860877
230	0x3ecb80f7	0.3974683
231	0x3f375aaf	0.7162275
232	0x3ec7c846	0.39019984
233	0x3f063611	0.5242625
234	0x3ecb8835	0.39752355
235	0x3f86793b	1.0505747
236	0x3f20280b	0.625611
237	0x3ed07d92	0.40720803
238	0x3f141f6e	0.5786046
239	0x3ec5e112	0.38648278
240	0x3e9d182a	0.30682498
241	0x3ecba8b1	0.3977714
242	0x3f0dfe9a	0.55466616
243	0x3f4e273a	0.80528605
244	0x3f17bacf	0.5926942
245	0x3ea7ae49	0.32750157
246	0x3f2227b5	0.6334184
247	0x3f3480e2	0.7050916
248	0x3f1cf395	0.61309177
249	0x3e90a5e7	0.28251573
250	0x3ec28bca	0.37997276
251	0x3f07ea5a	0.5309197
252	0x3f122faa	0.5710398
253	0x3ec945ba	0.3931101
254	0x40113614	2.2689257
255	0x3f380b33	0.7189209

feature_layer.0.bias f4 [256]
0	0x3f0bd301	0.5461884
1	0x3f3536c4	0.7078669
2	0x3f302531	0.6880675
3	0x3f20d121	0.62819105
4	0x3f0d25bd	0.5513571
5	0x3f2980d2	0.6621219
6	0x3f10dbff	0.5658569
7	0x3f0f347f	0.5593948
8	0x3efab1d4	0.48963797
9	0x3f07af44	0.5300181
10	0x3ee08e13	0.43858394
11	0x3f1a7993	0.6034176
12	0x3f19107c	0.5979078
13	0x3f0c264e	0.5474595
14	0x3ef5ff30	0.48046255
15	0x3f204185	0.62599975
16	0x3f0a83e5	0.54107505
17	0x3f2ce2e7	0.67533726
18	0x3eef7c51	0.46774533
19	0x3f297a9f	0.6620273
20	0x3eeba600	0.46025085
21	0x3f04d4e8	0.5188737
22	0x3eff558a	0.4986995
23	0x3ee59bbf	0.44845387
24	0x3f0b1ee7	0.5434403
25	0x3f0a0cfc	0.5392606
26	0x3f1b4f66	0.6066803
27	0x3f27d6de	0.65562236
28	0x3f354d57	0.70821136
29	0x3f01d051	0.5070849
30	0x3ef11b56	0.47091168
31	0x3efaed13	0.49008998
32	0x3f19bcb4	0.60053563
33	0x3f161e3a	0.5863987
34	0x3f085e7b	0.53269166
35	0x3ed97d4f	0.42478415
36	0x3eedf7ec	0.46478212
37	0x3f245036	0.6418489
38	0x3f1c016e	0.6093968
39	0x3f07b563	0.5301115
40	0x3ef33848	0.47503877
41	0x3f055bb6	0.52093065
42	0x3f2ef7e8	0.68347025
43	0x3f04083e	0.51575077
44	0x3ef7b8bc	0.4838313
45	0x3f2776e4	0.6541579
46	0x3ee24678	0.44194388
47	0x3f112ac0	0.56705856
48	0x3f0a77ab	0.5408885
49	0x3f253d0d	0.6454628
50	0x3ee2acf4	0.44272578
51	0x3ef074b1	0.46964028
52	0x3f1a2018	0.6020522
53	0x3f0862d7	0.5327582
54	0x3f079af5	0.5297082
55	0x3f2c5c94	0.67328763
56	0x3f0adfc8	0.54247713
57	0x3f16cd8d	0.58907396
58	0x3f0e5216	0.55594003
59	0x3efa2c38	0.4886186
60	0x3ef9550c	0.48697698
61	0x3f1222b4	0.570842
62	0x3f125593	0.57161826
63	0x3f2e5983	0.68105334
64	0x3edf710f	0.43640944
65	0x3efacac9	0.48982838
66	0x3f1764b7	0.59138054
67	0x3ef5d730	0.48015738
68	0x3f136851	0.5758105
69	0x3f0cff2c	0.5507686
70	0x3eeb510d	0.45960274
71	0x3f044ddf	0.5168132
72	0x3f1bb4ff	0.60823053
73	0x3ef37246	0.4754812
74	0x3f08a875	0.53382045
75	0x3f009b5a	0.5023705
76	0x3f173215	0.59060794
77	0x3f13b5ac	0.57699084
78	0x3f0f23af	0.55913824
79	0x3f22cc14	0.6359265
80	0x3f30379d	0.6883486
81	0x3f2a6c3c	0.665714
82	0x3f0d21b0	0.5512953
83	0x3f0dd16e	0.5539769
84	0x3f11670f	0.5679788
85	0x3f25fc4d	0.64838105
86	0x3ef9e622	0.4880839
87	0x3f1d7161	0.6150113
88	0x3f0dcbd1	0.55389124
89	0x3f2d5148	0.6770215
90	0x3f0ec764	0.55772996
91	0x3f1cc055	0.61230975
92	0x3efcf048	0.4940207
93	0x3f12c395	0.57329684
94	0x3f0af771	0.54283816
95	0x3f01fb5f	0.50774187
96	0x3f1faee1	0.6237622
97	0x3f028004	0.50976586
98	0x3f019ece	0.5063294
99	0x3f29a2c7	0.66264004
100	0x3f227d49	0.6347242
101	0x3f252c15	0.6452039
102	0x3ee25db1	0.44212106
103	0x3ef1b060	0.47204876
104	0x3f09b7e0	0.53796196
105	0x3f117630	0.56820965
106	0x3f1f545d	0.62238103
107	0x3f29cf0e	0.66331565
108	0x3f065444	0.5247233
109	0x3f0515f8	0.51986647
110	0x3effe908	0.49982476
111	0x3f0d4398	0.55181265
112	0x3f09bb66	0.5380157
113	0x3f1b548c	0.60675883
114	0x3f2688ca	0.65052474
115	0x3f2cf4cb	0.67561024
116	0x3f13f74a	0.5779921
117	0x3f18e152	0.5971881
118	0x3f2227c3	0.6334192
119	0x3f1d8b23	0.6154043
120	0x3f079381	0.5295945
121	0x3f2ecb1c	0.6827867
122	0x3f09af2d	0.5378292
123	0x3eee3303	0.46523294
124	0x3f2c47ab	0.67296857
125	0x3f05a4ab	0.5220439
126	0x3f1b7afe	0.60734546
127	0x3f0d3fa2	0.5517522
128	0x3f10621f	0.5639972
129	0x3efe72e0	0.49697018
130	0x3f1e7c8b	0.6190879
131	0x3f1462b8	0.5796313
132	0x3f0021ab	0.50051373
133	0x3f015a32	0.5052825
134	0x3f00a55c	0.5025232
135	0x3f0cc9cd	0.54995424
136	0x3ee2b9f7	0.44282505
137	0x3f21364b	0.6297347
138	0x3f2915ac	0.66048694
139	0x3f0b65b2	0.5445205
140	0x3f14d921	0.5814381
141	0x3f08d577	0.5345072
142	0x3f14aa99	0.5807281
143	0x3f204af4	0.6261437
144	0x3f264dd6	0.6496252
145	0x3f0fb221	0.5613118
146	0x3f0e5155	0.5559285
147	0x3f2a6a73	0.6656868
148	0x3f02aa81	0.5104142
149	0x3f2b91d1	0.67019373
150	0x3f071b6a	0.52776206
151	0x3ef81c9b	0.48459324
152	0x3f2337c1	0.6375695
153	0x3f1d6d1c	0.6149461
154	0x3eedd71f	0.46453187
155	0x3f20f283	0.62870044
156	0x3f2d6d22	0.6774465
157	0x3f1287dc	0.57238555
158	0x3f128c3d	0.57245237
159	0x3f0e25b7	0.555263
160	0x3f0fa055	0.5610402
161	0x3f109833	0.5648224
162	0x3f0a72a6	0.5408119
163	0x3ef4e751	0.4783273
164	0x3f0770eb	0.52906674
165	0x3f1f2938	0.6217227
166	0x3f177a95	0.5917142
167	0x3efda65e	0.4954099
168	0x3f19c0d6	0.6005987
169	0x3f0948cc	0.53626704
170	0x3f2697c0	0.650753
171	0x3f29bd68	0.66304636
172	0x3f26704e	0.65015113
173	0x3f06619e	0.524927
174	0x3f04b9df	0.51846117
175	0x3f264289	0.64945275
176	0x3f27fc3c	0.65619254
177	0x3f0f4b12	0.55973923
178	0x3f2abc2e	0.6669339
179	0x3f096cd5	0.5368169
180	0x3f07d960	0.5306606
181	0x3f1161f8	0.56790113
182	0x3f084148	0.5322461
183	0x3ef263d7	0.47341797
184	0x3f09b414	0.537904
185	0x3f226f54	0.63451123
186	0x3f14cc3b	0.5812413
187	0x3f09b405	0.53790313
188	0x3f1f13a6	0.62139356
189	0x3f071e69	0.5278078
190	0x3f0b2a1c	0.5436113
191	0x3f1a3bec	0.60247684
192	0x3f037887	0.51355785
193	0x3ee9f20f	0.4569249
194	0x3f1b770a	0.60728514
195	0x3f270709	0.6524511
196	0x3f18963a	0.5960423
197	0x3f31e9ce	0.6949738
198	0x3f24547e	0.64191425
199	0x3f2f9d77	0.6859965
200	0x3f15d34b	0.5852553
201	0x3f207d69	0.6269136
202	0x3f20f18e	0.62868583
203	0x3ed303fb	0.41213974
204	0x3f22192c	0.6331966
205	0x3ef2be79	0.47410944
206	0x3efa171e	0.48845762
207	0x3f11db0f	0.5697488
208	0x3f1cb789	0.6121755
209	0x3f0b23f6	0.5435175
210	0x3f12f6ec	0.5740802
211	0x3f19da11	0.6009837
212	0x3ef0cc0f	0.47030684
213	0x3efd80bf	0.49512288
214	0x3f212ff7	0.62963814
215	0x3eed8965	0.46393886
216	0x3f1267d2	0.5718967
217	0x3f3296ee	0.6976155
218	0x3eeac2b4	0.45851672
219	0x3f1f179a	0.6214539
220	0x3f0802f8	0.5312953
221	0x3f19d7ca	0.6009489
222	0x3f231617	0.6370558
223	0x3f05d80d	0.5228279
224	0x3f14db85	0.5814746
225	0x3ed0b35a	0.40761834
226	0x3eec7b53	0.4618784
227	0x3f2a6e0a	0.66574156
228	0x3f2a6be0	0.66570854
229	0x3f1ee6b5	0.6207078
230	0x3f26c08d	0.6513756
231	0x3f0001dd	0.50002843
232	0x3f37819b	0.7168214
233	0x3f27769b	0.6541535
234	0x3f1bc868	0.6085267
235	0x3f04e985	0.5191882
236	0x3f1e9711	0.6194926
237	0x3f12ae24	0.5729697
238	0x3f1c8c8e	0.6115197
239	0x3efab158	0.48963428
240	0x3f207e71	0.62692934
241	0x3ef4619b	0.47730717
242	0x3f0f8476	0.56061494
243	0x3f138d0a	0.57637084
244	0x3f09eb2c	0.5387447
245	0x3f1260c8	0.57178926
246	0x3f089cf3	0.53364486
247	0x3efd86a4	0.49516785
248	0x3f07ff06	0.5312351
249	0x3f108bb0	0.56463146
250	0x3f13f588	0.57796526
251	0x3f20f35b	0.6287133
252	0x3f0d30be	0.551525
253	0x3f0e83a6	0.5566963
254	0x3f2be603	0.67147845
255	0x3f14b342	0.58086026

feature_layer.1.weight f4 [256]
0	0x400b9e9e	2.1815562
1	0x400d8095	2.210973
2	0x3ffe4810	1.9865742
3	0x3fb4be50	1.4120579
4	0x3fa11e20	1.2587318
5	0x3fb98390	1.4493275
6	0x400ba7af	2.1821096
7	0x3fc0e487	1.5069741
8	0x3fbdefe9	1.483884
9	0x3fbc9c5e	1.473522
10	0x407a2b2f	3.9088857
11	0x3fbb4ac5	1.4632193
12	0x3f85f5bb	1.0465616
13	0x3f81bd01	1.0135804
14	0x40328444	2.7893229
15	0x3fbc6377	1.4717854
16	0x4016638c	2.3498259
17	0x3fe4b1e9	1.7866794
18	0x406268a3	3.5376365
19	0x3fa663c9	1.2999202
20	0x3f8c9683	1.0983433
21	0x3ff91627	1.9459885
22	0x400a2934	2.1587648
23	0x40256bd3	2.584706
24	0x3fce8d95	1.6136957
25	0x3fb97e9a	1.4491761
26	0x3fecef44	1.8510518
27	0x4016d7c4	2.3569193
28	0x3fb606c7	1.4220818
29	0x40368a66	2.8521972
30	0x3f890539	1.0704719
31	0x3fcc8ebc	1.5981059
32	0x402f9bab	2.7438762
33	0x3febcd7a	1.8422081
34	0x3f866b52	1.0501502
35	0x3f6a9ffc	0.91650367
36	0x3f95eced	1.1712929
37	0x3fc086b8	1.5041113
38	0x3ff09f1a	1.8798554
39	0x3fc8fc13	1.5701927
40	0x3fd0f80c	1.6325698
41	0x40050669	2.0785162
42	0x3fa4865e	1.2853506
43	0x4048e775	3.139127
44	0x3f8dfac3	1.1092151
45	0x3fed9300	1.8560486
46	0x3fd9079a	1.6955445
47	0x400e84a2	2.2268453
48	0x3fdc83d1	1.7227727
49	0x3fad1930	1.3523312
50	0x3fdb6e86	1.7143104
51	0x3fddec90	1.7337818
52	0x3fd079b3	1.628714
53	0x3fabee8e	1.3432176
54	0x400e0ade	2.2194133
55	0x402f4752	2.738728
56	0x3fa9e638	1.3273382
57	0x3fc722d7	1.5557507
58	0x3fb55689	1.4167033
59	0x3fda7a66	1.7068603
60	0x3fa30fe9	1.273923
61	0x3faf0724	1.3674054
62	0x40403029	3.0029395
63	0x3fc151c2	1.5103076
64	0x3f9fbffa	1.2480462
65	0x3fc00890	1.5002613
66	0x3fc71b1a	1.5555146
67	0x3faa82f2	1.3321211
68	0x3fb5f1c1	1.4214402
69	0x3f89fa8c	1.0779586
70	0x3fdbd44a	1.717416
71	0x3f91f7cd	1.1403748
72	0x402d5a69	2.7086432
73	0x3faaf972	1.3357375
74	0x3fbfbcd3	1.49795
75	0x3fc6dfec	1.5537086
76	0x3fdf408f	1.7441577
77	0x403041de	2.7540202
78	0x3fe2e799	1.7726928
79	0x3ff625bd	1.9230267
80	0x3fcaf3d1	1.5855657
81	0x40010665	2.0160153
82	0x3fc26e17	1.5189847
83	0x3fe76c9e	1.8080022
84	0x40123e43	2.2850502
85	0x4010d297	2.2628534
86	0x3fd8aa0b	1.6926893
87	0x3faa9c5a	1.3328965
88	0x3fcd7101	1.6050111
89	0x3ffb33e6	1.9625213
90	0x401ed09f	2.4814832
91	0x3fc44fed	1.5336891
92	0x3fba9b9e	1.4578741
93	0x400f5370	2.2394676
94	0x3fa754c6	1.3072746
95	0x4008be54	2.1366167
96	0x400b7f4a	2.179644
97	0x3fd6e7eb	1.6789526
98	0x3f95cb49	1.1702663
99	0x3fec076b	1.8439764
100	0x3fe21aad	1.7664391
101	0x3fcc0ad0	1.59408
102	0x3fa344ec	1.2755408
103	0x3ffe8027	1.9882859
104	0x403fc96f	2.9966695
105	0x4034c92a	2.824778
106	0x3fc23860	1.5173454
107	0x3fc40406	1.5313728
108	0x403998f3	2.8999603
109	0x403eb793	2.9799545
110	0x3f827544	1.0192037
111	0x3fabb844	1.3415608
112	0x3ff4d42c	1.912725
113	0x3f88e2e8	1.0694246
114	0x3fedbed8	1.8573866
115	0x40033f9e	2.050758
116	0x3fa38d3b	1.2777475
117	0x3f8906a0	1.0705147
118	0x3fca36e2	1.5797999
119	0x401f994a	2.493731
120	0x40039e12	2.0565228
121	0x3fca4fdf	1.5805625
122	0x3fef4b58	1.8694868
123	0x3fc6d6c7	1.5534295
124	0x3fa3136a	1.27403
125	0x40a18a37	5.048122
126	0x402e0d9a	2.7195802
127	0x40038432	2.0549436
128	0x3fc5e71b	1.5461153
129	0x3fbe7008	1.4877939
130	0x3fbde3f4	1.4835191
131	0x3fda6f7c	1.7065272
132	0x3f7a3b93	0.97747153
133	0x3fa60371	1.29698
134	0x3fe67001	1.8002931
135	0x3f9c7113	1.2222008
136	0x3fcbc8e8	1.5920687
137	0x4019d8e5	2.4038632
138	0x4004c55a	2.0745454
139	0x3f96f72f	1.1794184
140	0x3f8f7a1f	1.1209143
141	0x4024ee33	2.5770385
142	0x3fe1457d	1.7599331
143	0x4013729c	2.3038702
144	0x400e6aba	2.225264
145	0x4027c768	2.6215458
146	0x408bbc3c	4.366728
147	0x3fe522c4	1.7901235
148	0x40129cf1	2.290829
149	0x3fc0cc9a	1.506244
150	0x400c5bfa	2.1931138
151	0x3f93304c	1.1499114
152	0x4029e33e	2.6544948
153	0x40215ce9	2.5212958
154	0x4006a1a2	2.1036153
155	0x3f77fc44	0.968693
156	0x3fea4a96	1.8304012
157	0x3f9fb925	1.2478377
158	0x402d48b6	2.707563
159	0x40060684	2.0941477
160	0x40000312	2.0001874
161	0x4021a66a	2.525782
162	0x3f8ca2bf	1.0987166
163	0x3fec6c8a	1.8470623
164	0x3fc6591a	1.5495942
165	0x3fcc3f9a	1.595691
166	0x3fb9a64a	1.4503872
167	0x40100af8	2.2506695
168	0x40086fe3	2.131829
169	0x3fe4955c	1.7858081
170	0x3fd3124e	1.6489961
171	0x40328fc0	2.7900238
172	0x40436601	3.0531008
173	0x402e1f2f	2.7206533
174	0x40044b76	2.0671058
175	0x3f8c5c92	1.096575
176	0x3ff5c043	1.9199299
177	0x3fc42590	1.5323963
178	0x40162ce1	2.3464892
179	0x3fd91d5a	1.6962082
180	0x3f79042a	0.9727198
181	0x3fc06873	1.5031875
182	0x3f9c7ee3	1.2226223
183	0x3f70fc9b	0.94135445
184	0x405e4008	3.4726582
185	0x3fb93827	1.4470261
186	0x3fdd29ef	1.7278422
187	0x3f958960	1.1682549
188	0x3f8918c3	1.0710682
189	0x3fa19b57	1.2625531
190	0x403fc5d5	2.9964497
191	0x400a96e2	2.1654592
192	0x403ace08	2.9188251
193	0x3fa5980d	1.2937027
194	0x3f8bd60f	1.09247
195	0x3fc25d8f	1.5184802
196	0x3fb3af9d	1.4037968
197	0x3ffbf997	1.9685544
198	0x40046278	2.06851
199	0x3ffd958c	1.9811263
200	0x3fd1760b	1.6364149
201	0x4008b285	2.135896
202	0x3fdaaef9	1.7084647
203	0x3ff8107e	1.9380033
204	0x3fbf4a54	1.4944558
205	0x3fc48657	1.5353497
206	0x3fced4cb	1.6158689
207	0x3fa67c9f	1.3006781
208	0x4029b112	2.6514325
209	0x3fabcd54	1.3422036
210	0x3fa5dd8e	1.2958238
211	0x3f9b3de0	1.2128258
212	0x3f93ad76	1.1537311
213	0x3fb1dbd7	1.3895215
214	0x3fcb84a0	1.5899849
215	0x4027eb2d	2.623729
216	0x4033d0ab	2.809611
217	0x3fed51a9	1.8540546
218	0x3fcb6765	1.5890929
219	0x3fa6e558	1.303874
220	0x3fba1df8	1.4540396
221	0x3f8902df	1.0704001
222	0x400ead22	2.2293172
223	0x40371ed1	2.861256
224	0x3fef1b8c	1.8680282
225	0x3f947572	1.1598341
226	0x3fb75d79	1.43254
227	0x3fffbd1e	1.9979589
228	0x3fee8687	1.8634804
229	0x3fdd8644	1.73066
230	0x401843b2	2.3791318
231	0x3fa2db56	1.2723186
232	0x3fa0a4d2	1.2550299
233	0x402d8c4c	2.711688
234	0x3ff19744	1.8874288
235	0x404714da	3.1106477
236	0x3fd2a621	1.6456949
237	0x405adfe6	3.4199157
238	0x3fc68fce	1.5512636
239	0x3fbd0fa1	1.4770395
240	0x3fb708c7	1.4299554
241	0x4074c25a	3.8243623
242	0x3ffd3d09	1.9784251
243	0x3ffaeb7e	1.9603117
244	0x4005d166	2.0909057
245	0x3f99a126	1.2002304
246	0x3ff2d24f	1.8970431
247	0x4000a966	2.0103393
248	0x3fc0fb9e	1.5076787
249	0x3f919581	1.137375
250	0x3feca996	1.8489254
251	0x401ba13f	2.4317167
252	0x3fa7a8e2	1.3098414
253	0x3fd82e1c	1.6889071
254	0x3f937969	1.1521426
255	0x3fd6c3ff	1.6778563

feature_layer.1.bias f4 [256]
0	0x3ef80592	0.4844175
1	0x3edcbf70	0.43114805
2	0x3e96f11a	0.2948082
3	0x3e8e18c5	0.27753273
4	0x3e5dff6f	0.21679471
5	0x3eecbf28	0.4623959
6	0x3e6fd2ae	0.23420212
7	0x3ed184a9	0.40921524
8	0x3e928056	0.28613538
9	0x3ea2b168	0.31775975
10	0x3ed724b5	0.42020193
11	0x3eca6fda	0.3953846
12	0x3e4a6f0c	0.19768924
13	0x3eb3cd7a	0.35117704
14	0x3f012e36	0.5046114
15	0x3e4ccc82	0.19999889
16	0x3ea7cd7b	0.32773957
17	0x3ea6666a	0.3250001
18	0x3f118274	0.5683968
19	0x3e6fe298	0.23426282
20	0xbe202ab2	-0.15641287
21	0x3ebdd9cb	0.37080225
22	0x3ea825ac	0.3284124
23	0x3ef3a12d	0.47583905
24	0x3ed48367	0.41506502
25	0x3eeb95ed	0.46012822
26	0x3ee115e6	0.4396202
27	0x3e984bb4	0.29745257
28	0x3e425bd0	0.18980336
29	0x3f11f9e3	0.5702192
30	0x3db6682f	0.0890659
31	0x3ecfb826	0.40570182
32	0x3ede8be0	0.4346609
33	0x3ebf90a1	0.3741503
34	0x3e206b48	0.15665925
35	0xbe930b51	-0.2871957
36	0xbc3fd2b9	-0.011707955
37	0x3e968947	0.2940161
38	0x3eae1f22	0.34008127
39	0x3e16b887	0.14718829
40	0x3eb7c2e7	0.35890886
41	0x3f123142	0.5710641
42	0x3ea03006	0.3128664
43	0x3f0df6a4	0.5545447
44	0xbe3b55f4	-0.18294507
45	0x3eab19b5	0.3341805
46	0x3e7348d3	0.23758249
47	0x3ee1ed82	0.44126517
48	0x3dc895ae	0.09794174
49	0x3e9ac33b	0.30227074
50	0x3ede7592	0.43449074
51	0x3eae0811	0.3399053
52	0x3f068fd0	0.5256319
53	0x3d8a6588	0.06757647
54	0x3ee47275	0.44618574
55	0x3ef6e28b	0.48219714
56	0x3f09be4e	0.53806007
57	0x3eebccce	0.4605469
58	0x3df23079	0.11825652
59	0x3e9db1c4	0.30799687
60	0xbd4c8ee8	-0.049940974
61	0x3e4748e3	0.19461398
62	0x3ee5e108	0.44898248
63	0x3e81aec6	0.25328654
64	0x3edc4f16	0.43029088
65	0xbe147332	-0.14497069
66	0x3e78d727	0.24300824
67	0x3e7f1c21	0.24913074
68	0x3da4ac91	0.08040727
69	0xbe0332af	-0.12812303
70	0xbda4a504	-0.08039287
71	0x3e666583	0.22499661
72	0x3eb3c5fb	0.35111985
73	0x3db05767	0.08610421
74	0x3e94032f	0.2890868
75	0x3ed24e49	0.41075352
76	0x3ecf8f47	0.40539
77	0x3f03e2b2	0.51517785
78	0x3e3e5a87	0.18589221
79	0x3e951f5d	0.2912549
80	0x3eb04c35	0.3443314
81	0x3eaa0610	0.3320775
82	0x3e65630e	0.22401068
83	0x3eb6804c	0.35644758
84	0x3ec0b797	0.37640068
85	0x3ebf62cf	0.37380072
86	0x3e9e49c7	0.30915663
87	0x3e302f05	0.17205437
88	0x3e66f3c4	0.22553927
89	0x3e8a08a2	0.2695971
90	0x3e20604b	0.15661733
91	0x3ddc69d8	0.107623756
92	0x3e905f77	0.28197834
93	0x3ec47904	0.38373578
94	0x3d8f755b	0.07004806
95	0x3e9eee39	0.31041124
96	0x3eb82dfc	0.35972583
97	0x3ed64980	0.4185295
98	0x3df04b08	0.11733061
99	0x3e8bcada	0.273032
100	0x3e22874f	0.15871929
101	0x3e5027f3	0.2032774
102	0xbdc46740	-0.09590006
103	0x3c912568	0.017718032
104	0x3f2b6995	0.6695798
105	0x3ef9caf4	0.48787653
106	0x3ead328e	0.33827633
107	0x3e392774	0.18081456
108	0x3ebd0c03	0.36923227
109	0x3f125716	0.5716413
110	0xbc03fdd8	-0.008056127
111	0x3e2d8763	0.16946177
112	0x3eb0fa1a	0.34565812
113	0x3e3c864a	0.18410602
114	0x3ea5ef66	0.3240921
115	0x3ea8a21a	0.32936174
116	0x3df50ccb	0.11965331
117	0x3d265927	0.040612366
118	0x3f149825	0.58044654
119	0x3e746a00	0.23868561
120	0x3e9aa741	0.3020573
121	0x3e734041	0.2375498
122	0x3efb6461	0.4910002
123	0x3f3794ec	0.7171161
124	0x3ded1eaf	0.11578118
125	0x3e1063da	0.1410059
126	0x3ec8d9fd	0.39228812
127	0x3f1cf6a9	0.61313874
128	0x3f04d716	0.51890695
129	0x3f045e9b	0.51706856
130	0x3d8996dc	0.06718227
131	0x3df2438d	0.118292905
132	0xbcd53ce6	-0.026030015
133	0x3e972349	0.29519108
134	0x3ed44e28	0.41465878
135	0x3e818fa4	0.25304902
136	0x3dc769f6	0.09737007
137	0x3f1d7a45	0.61514693
138	0x3ec3928c	0.38197744
139	0x3e0a7a2c	0.13523167
140	0x3e9837fa	0.29730207
141	0x3ee4d172	0.44691044
142	0x3ed9d0d7	0.42542145
143	0x3eaa74b2	0.33292156
144	0x3ec7aa13	0.38996944
145	0x3edd8ad4	0.4326998
146	0x3f023cf5	0.50874263
147	0x3e5c25c4	0.21498781
148	0x3f301ab7	0.68790764
149	0x3ecf179a	0.40447694
150	0x3e66dc6e	0.22545025
151	0x3d32f028	0.043686062
152	0x3ed94a27	0.42439386
153	0x3ef8a176	0.48560685
154	0x3e21258a	0.15736976
155	0xb9ccdcb5	-0.00039074352
156	0x3eb02f85	0.34411255
157	0x3eae2975	0.34016004
158	0x3f273b9a	0.6532532
159	0x3eac9a77	0.33711597
160	0x3eb34713	0.35015163
161	0x3f008937	0.50209373
162	0x3cbe9336	0.023263555
163	0x3ebbe0dc	0.36694992
164	0x3e968085	0.29394928
165	0x3e821995	0.25410143
166	0x3ece1956	0.40253705
167	0x3ec20f8b	0.37902483
168	0x3e829a93	0.25508556
169	0x3e4fe59c	0.20302433
170	0x3ea01e72	0.31273228
171	0x3f2163c6	0.6304287
172	0x3ed8ca28	0.42341733
173	0x3e92ba90	0.2865796
174	0x3eadfb55	0.33980814
175	0xbd286113	-0.041108202
176	0x3ed34f9e	0.4127168
177	0x3eba47bf	0.36382863
178	0x3ec27389	0.3797877
179	0x3ebb6077	0.36597034
180	0x3eb802ee	0.35939735
181	0x3e9610c5	0.2930967
182	0x3dca873f	0.098890774
183	0x3f2931b0	0.6609144
184	0x3f0765af	0.5288953
185	0x3e9b5e1e	0.30345243
186	0x3eb135ea	0.34611446
187	0x3e459ecd	0.19298859
188	0x3e6dd604	0.23226172
189	0x3e2d525c	0.16925949
190	0x3ee61207	0.4493563
191	0x3e97b2b5	0.2962853
192	0x3eb9a6e7	0.3626015
193	0x3e99406c	0.29931962
194	0x3dd9d95b	0.106371604
195	0x3f10b171	0.56520754
196	0x3e2a990b	0.16659944
197	0x3ec9f509	0.3944476
198	0x3e9e6345	0.30935112
199	0x3e9a0c46	0.3008749
200	0x3f0c62e0	0.5483837
201	0x3ef529ff	0.47883603
202	0x3e96458e	0.2934994
203	0x3f13c299	0.5771881
204	0x3eb3e831	0.35138085
205	0x3ec5bf86	0.38622683
206	0x3ec5adab	0.3860906
207	0x3e9e0b72	0.30868107
208	0x3e6cbda4	0.23119217
209	0x3e4edbe4	0.20201069
210	0x3d15260b	0.036413234
211	0x3e5049ac	0.20340604
212	0xbe532eef	-0.20623372
213	0x3d9e315b	0.077242576
214	0x3e952ae4	0.29134285
215	0x3f0b0a38	0.5431247
216	0x3e99f6ac	0.30071008
217	0x3e41e773	0.18935947
218	0x3e9afaa5	0.30269352
219	0x3e907d5f	0.2822065
220	0x3e9fc299	0.31203154
221	0x3ec53e1f	0.38523957
222	0x3ed8812e	0.42286056
223	0x3f34b76d	0.70592386
224	0x3ec34d70	0.38145018
225	0x3e46a894	0.19400245
226	0x3d8d8905	0.069109
227	0x3ea5e663	0.32402334
228	0x3eb5ed15	0.35532442
229	0x3ec55bdf	0.38546655
230	0x3ec70c22	0.38876444
231	0x3ea2da18	0.31807017
232	0x3e38870a	0.18020263
233	0x3ed7def1	0.42162278
234	0x3f1f3e08	0.6220403
235	0x3e9ff886	0.31244296
236	0x3eae864b	0.34086832
237	0x3ec5a809	0.38604763
238	0x3ef7f569	0.4842942
239	0x3e9a1b3f	0.30098912
240	0x3e8a6a42	0.27034193
241	0x3ed71824	0.42010605
242	0x3edcb569	0.43107155
243	0x3f0538ce	0.520398
244	0x3edf91c0	0.43665886
245	0x3eab6230	0.3347335
246	0x3eefc49e	0.46829695
247	0x3e24acbc	0.16081518
248	0x3ece7bed	0.40328923
249	0x3ca7f132	0.020500753
250	0x3e8cfa89	0.27534893
251	0x3ef597dd	0.47967425
252	0x3e841302	0.25795752
253	0x3edf1452	0.4357019
254	0x3c911938	0.01771222
255	0x3ecbaf05	0.39781967

feature_layer.4.weight f4 [128, 256]
0	0x3f398dc3	0.72481936
1	0xbf3a0761	-0.7266751
2	0xbf167836	-0.5877718
3	0xbeba344b	-0.3636802
4	0x3efd0698	0.49419093
5	0xbe5a4696	-0.21315989
6	0xbeda376e	-0.42620414
7	0xbe5c0d10	-0.21489358
8	0x3f1f46b1	0.6221724
9	0x3e26d78d	0.16293164
10	0xbf20d4a0	-0.6282444
11	0xbea3dd80	-0.3200493
12	0x3ef90eec	0.48644197
13	0xbe30e6f2	-0.17275599
14	0xbe1e08b6	-0.1543301
15	0xbe0fffbe	-0.14062402
16	0x3e2b7d07	0.16746913
17	0xbe85dab3	-0.26143417
18	0x3f239ed9	0.6391426
19	0xbe4114eb	-0.18855636
20	0x3e0c9291	0.13727786
21	0x3ec1df84	0.3786584
22	0xbe0e13a3	-0.13874678
23	0xbe8c2a59	-0.2737606
24	0x3f307e42	0.68942654
25	0x3ee7fa1d	0.4530801
26	0xbecea1b5	-0.40357748
27	0xbf6cf260	-0.92557335
28	0xbf130519	-0.57429653
29	0x3eb18e7c	0.3467902
30	0x3ed20747	0.41021177
31	0x3f0c1033	0.5471222
32	0x3e415416	0.18879732
33	0x3eb71951	0.35761502
34	0xbd73347a	-0.059376217
35	0xbe121824	-0.14267021
36	0x3e9978be	0.2997493
37	0xbf095bec	-0.53655887
38	0x3d0783b4	0.033084586
39	0xbe3decbf	-0.18547343
40	0xbdb08c8c	-0.08620557
41	0x3f6afdc7	0.91793483
42	0x3e80212e	0.25025314
43	0x3edf2ac2	0.4358731
44	0x3e557da9	0.20848717
45	0xbf0c8540	-0.54890823
46	0xbeba22d6	-0.36354703
47	0x3f2afdbe	0.6679343
48	0xbe549e07	-0.20763408
49	0xbf275d4c	-0.65376735
50	0xbe97ab30	-0.29622793
51	0x3e97cd28	0.2964871
52	0x3edbf167	0.42957613
53	0x3c38d9e5	0.011282419
54	0x3eccc771	0.39995912
55	0xbf63460d	-0.88778764
56	0x3e6b9fb4	0.2301014
57	0xbe99d046	-0.30041713
58	0xbe67f853	-0.22653322
59	0xbe2fc383	-0.17164426
60	0x3eb9e9e8	0.3631127
61	0xbe82f9dd	-0.25581256
62	0x3eb358b9	0.35028628
63	0xbe8dd6e9	-0.27703026
64	0x3e8b3b70	0.27193785
65	0x3d1a895e	0.03772866
66	0x3f032ba6	0.5123848
67	0x3f00f3a5	0.5037177
68	0xbd85a332	-0.06525268
69	0xbe149013	-0.14508085
70	0x3e99628e	0.29958004
71	0x3d654740	0.055976152
72	0xbf24d7fb	-0.6439206
73	0xbe3ac1d0	-0.18237996
74	0xbcfc2700	-0.030780315
75	0x3e480742	0.19534019
76	0xbe7019bd	-0.23447318
77	0x3fb09ed3	1.3798469
78	0x3e4dadab	0.2008578
79	0xbe801f1d	-0.25023738
80	0xbe76d2af	-0.24103807
81	0xbe80d40f	-0.25161788
82	0xbed3fb72	-0.41402775
83	0xbea009e8	-0.31257558
84	0xbda429a4	-0.08015755
85	0xbdbf345e	-0.0933616
86	0x3db88064	0.090088636
87	0xbe9abffc	-0.30224597
88	0x3ece7f35	0.40331426
89	0xbed7376e	-0.42034477
90	0x3f1e093e	0.6173285
91	0xbf27e614	-0.65585446
92	0x3f0be9d8	0.5465369
93	0x3dbbaafc	0.09163472
94	0xbe3a34ba	-0.18184176
95	0xbec1704e	-0.37780994
96	0xbf2d57ac	-0.677119
97	0xbef8ffa9	-0.48632553
98	0xbe76e9f1	-0.24112679
99	0xbdf263eb	-0.11835464
100	0xbe2fe98a	-0.17178932
101	0xbf22bb3e	-0.6356696
102	0xbccf696f	-0.02531883
103	0xbd4de893	-0.05027063
104	0xbe377773	-0.1791666
105	0x3f0d0a26	0.5509361
106	0xbe258b0b	-0.16166322
107	0xbe8005ab	-0.25004324
108	0x3e40bf3b	0.18822949
109	0x3f6a5cb4	0.91547704
110	0x3e3ecbe9	0.18632473
111	0x3e8f02fa	0.27931958
112	0xbe13932c	-0.1441161
113	0x3e9ec59a	0.31010133
114	0xbf03a79d	-0.5142763
115	0xbecc588d	-0.3991131
116	0xbdda614b	-0.106630884
117	0x3e88862a	0.2666486
118	0xbd9cbde1	-0.07653404
119	0xbf0c8cef	-0.5490255
120	0x3f13a221	0.57669264
121	0xbc4e64de	-0.012597291
122	0xbcdd90a3	-0.027046507
123	0x3e97a856	0.29620618
124	0xbe946070	-0.28979826
125	0x3d2d650e	0.0423327
126	0xbf91de27	-1.139592
127	0x3ec99490	0.39371157
128	0x3f423282	0.7585832
129	0x3f2eded8	0.6830878
130	0xbf12df7a	-0.5737225
131	0xbf29d76d	-0.6634434
132	0xbd8225f7	-0.063548975
133	0xbeba7eae	-0.36424774
134	0x3f27a63f	0.65488046
135	0x3f2aa934	0.66664433
136	0xbe7a6745	-0.24453457
137	0x3eb5979b	0.35467228
138	0xbf17580f	-0.5911874
139	0x3ed5b6b1	0.41740945
140	0xbc809126	-0.015694212
141	0x3e2288ad	0.1587245
142	0x3eade80c	0.339661
143	0xbf876a03	-1.0579227
144	0xbedcff53	-0.43163547
145	0x3f13db0d	0.5775612
146	0x3f4e0c1b	0.8048722
147	0xbeef52a0	-0.46742725
148	0x3edc3afa	0.43013746
149	0xbe48e8e8	-0.19620097
150	0xbed19e37	-0.4094102
151	0x3c91a58e	0.017779138
152	0xbf0bba39	-0.5458103
153	0xbdb2bffd	-0.08728025
154	0x3bb4ceb3	0.0055178045
155	0xbe7280bd	-0.23681922
156	0xbee71cb3	-0.45139083
157	0xbe236a66	-0.15958557
158	0x3f801094	1.0005059
159	0x3eb79dc7	0.35862562
160	0x3d2d9747	0.042380597
161	0x3f2c96ab	0.674174
162	0x3da4335f	0.08017611
163	0xbe3e734a	-0.18598667
164	0xbe22ad46	-0.15886411
165	0xbe9347fa	-0.2876585
166	0xbec4665a	-0.38359338
167	0x3e48e5e2	0.19618943
168	0xbde5858b	-0.11207112
169	0xbbd36b2f	-0.0064519863
170	0xbf37391b	-0.7157151
171	0xbf01b7e7	-0.5067124
172	0xbf92dec0	-1.1474228
173	0xbd165887	-0.03670552
174	0xbe6115b7	-0.2198094
175	0xbd4ac8c5	-0.049507875
176	0x3ee77048	0.4520285
177	0x3e9d0fa4	0.30675995
178	0xbf555f37	-0.8334841
179	0x3e541b26	0.20713481
180	0xbd72fc99	-0.059322927
181	0x3e21dcb4	0.15806848
182	0x3e9ef6e8	0.3104775
183	0x3df4d32e	0.11954342
184	0x3e93f51b	0.28897938
185	0xbecac1e7	-0.3960106
186	0x3e5169ed	0.20450564
187	0xbd6aa59f	-0.057286855
188	0xbf7bc496	-0.9834684
189	0x3eb16698	0.34648585
190	0x3f2e545b	0.68097466
191	0xbf24144c	-0.6409347
192	0xbe75cb03	-0.24003224
193	0x3e8c93b1	0.2745643
194	0x3f095158	0.53639746
195	0x3f07576f	0.5286779
196	0xbebd8e9d	-0.37022868
197	0x3dbe2d78	0.09286016
198	0xbe68cd2a	-0.22734514
199	0xbe1366db	-0.14394705
200	0x3ea21f00	0.31664276
201	0xbf2962a8	-0.6616616
202	0xbed292b8	-0.41127563
203	0xbdc32254	-0.09528032
204	0xbf1556f4	-0.58335805
205	0x3ea0f28a	0.31435043
206	0x3ecb60be	0.39722246
207	0xbe018bb9	-0.12650956
208	0xbe55a4a9	-0.20863594
209	0x3f1c1ba8	0.609797
210	0xbecec13c	-0.403818
211	0x3e919d77	0.2844045
212	0xbdac61db	-0.08417102
213	0x3d070bc5	0.03297021
214	0x3d09061d	0.033453096
215	0x3f451ea7	0.76999897
216	0xbeabc8f1	-0.33551744
217	0xbf67c71d	-0.905382
218	0x3f43ec69	0.7653261
219	0xbee69d38	-0.45041823
220	0x3d118a31	0.03553218
221	0x3e1b2662	0.1515136
222	0xbf51449b	-0.8174531
223	0xbee0b88b	-0.43890795
224	0x3f151e03	0.5824892
225	0xbeef27a7	-0.4670994
226	0x3cb7b43c	0.02242481
227	0xbf243392	-0.6414119
228	0x3d8c07ff	0.06837463
229	0x3e8c6f1c	0.2742852
230	0xbdad7843	-0.08470204
231	0xbe8e0254	-0.2773615
232	0xbef6b2d7	-0.4818332
233	0xbf07c648	-0.5303693
234	0x3e853e3e	0.2602405
235	0xbe8cf106	-0.27527636
236	0xbf058f80	-0.5217209
237	0xbf34c6ac	-0.7061565
238	0xbb894ba9	-0.0041899276
239	0xbe9ca5ce	-0.3059525
240	0x3ef53dea	0.478988
241	0xbc96b424	-0.018396445
242	0xbe940571	-0.289104
243	0xbf03ad77	-0.5143656
244	0x3f00cb60	0.50310326
245	0xbdaa3ab1	-0.08311976
246	0xbd340674	-0.043951467
247	0x3df4bca1	0.119500406
248	0x3f6d8515	0.9278119
249	0x3eb4a03c	0.352785
250	0xbf22bea2	-0.6357213
251	0x3ef347ab	0.47515616
252	0x3f24f06d	0.6442936
253	0xbdee0daa	-0.116237
254	0xbf3ecf7f	-0.74535364
255	0x3e33570b	0.17513673

feature_layer.4.bias f4 [128]
0	0x3f2fb420	0.68634224
1	0xbe2e5b0b	-0.17026918
2	0xbe8b1fb3	-0.27172622
3	0x3eb3a422	0.3508616
4	0x3f913b0d	1.1346146
5	0xbdb4c3ae	-0.088263854
6	0x3ec36235	0.38160864
7	0xbee8eafa	-0.45491773
8	0x3f38eecd	0.7223938
9	0x3e5f3824	0.2179876
10	0xbeb57e01	-0.35447696
11	0xbe99538f	-0.29946563
12	0x3e77e8b4	0.24209863
13	0x3f1eba86	0.6200336
14	0xbd5023bd	-0.050815333
15	0x3f2cd7fb	0.6751706
16	0xbe6934e2	-0.2277408
17	0xbe2342e5	-0.15943487
18	0x3de7cdf7	0.113185816
19	0x3edab297	0.42714378
20	0xbeb94e9f	-0.36192796
21	0x3f34f289	0.7068258
22	0x3ea30429	0.3183911
23	0x3ef1383f	0.47113225
24	0x3f5e8490	0.86921024
25	0xbe931a76	-0.28731126
26	0x3ebabe87	0.36473486
27	0x3edcf1e2	0.43153292
28	0xbe9b513e	-0.3033542
29	0xbe9687ba	-0.29400426
30	0xbea2104f	-0.31653067
31	0x3d3d5166	0.046220206
32	0xbf126fb8	-0.5720172
33	0xbedf077e	-0.43560404
34	0x3e76ba72	0.2409456
35	0xbec1fe9e	-0.3788957
36	0xbe6d428c	-0.23169917
37	0xbe445c6b	-0.1917588
38	0x3efcd8ad	0.4938406
39	0xbeb2ede0	-0.3494711
40	0xbecaaa72	-0.39583164
41	0x3f866a51	1.0501195
42	0x3d92591c	0.071459025
43	0x3f7e50c0	0.99341965
44	0x3ef5bb1e	0.47994322
45	0xbebc2402	-0.36746222
46	0xbe8b5e80	-0.27220535
47	0xbee48894	-0.4463545
48	0xbeeabe47	-0.45848295
49	0x3e51d8bd	0.20492835
50	0xbe8a128b	-0.26967272
51	0xbf1c5a1e	-0.6107501
52	0x3f68af21	0.90892226
53	0xbeb0833a	-0.34475118
54	0xbf061ec2	-0.5239068
55	0xbe6eac50	-0.2330792
56	0xbde7b0c2	-0.11313011
57	0xbc8eb101	-0.017418386
58	0x3cf5b05e	0.029991325
59	0x3f35231b	0.7075669
60	0x3f8322fb	1.024505
61	0xbe44eab0	-0.19230151
62	0xbe672bb1	-0.2257526
63	0xbefb5e57	-0.49095413
64	0xbe25c43f	-0.16188143
65	0xbeaaed5e	-0.33384222
66	0x3f9ac6db	1.2091936
67	0xbe418b62	-0.18900827
68	0x3eabc2c6	0.33547038
69	0x3e6d253f	0.2315874
70	0xbe40b895	-0.18820412
71	0xbde0b790	-0.10972512
72	0x3f56bcd4	0.8388188
73	0xbf317a21	-0.6932698
74	0xbe27b825	-0.1637884
75	0xbedd4f60	-0.4322462
76	0xbe953152	-0.2913919
77	0x3d4a8078	0.049438924
78	0xbc62433c	-0.013809975
79	0x3cffcbe1	0.031225147
80	0xbed40a40	-0.4141407
81	0xbc76362f	-0.015027567
82	0x3d7bc663	0.061468493
83	0xbe9955f4	-0.2994839
84	0x3f5d0111	0.8632975
85	0x3ea080b5	0.31348196
86	0xbe731187	-0.23737155
87	0x3edbcb80	0.42928696
88	0xbd0be371	-0.034152452
89	0xbe51175b	-0.20419066
90	0xbebfd0a9	-0.37463883
91	0x3c750735	0.014955332
92	0x3d3fe745	0.046851415
93	0xbef25491	-0.47330144
94	0x3ef89387	0.48550054
95	0xbea2a8db	-0.31769451
96	0xbe0d9c07	-0.13829051
97	0x3eaaace3	0.33335027
98	0xbe4fdd74	-0.20299321
99	0x3cc30703	0.023807054
100	0x3eb92d7a	0.36167508
101	0xbe06f88a	-0.13180748
102	0xbdf4a637	-0.119457655
103	0x3e9b6a22	0.3035441
104	0xbda42bcd	-0.08016167
105	0x3f4403ae	0.76568115
106	0xbe4c0ae6	-0.19926032
107	0xbd8a9ffa	-0.06768794
108	0xbefc31b6	-0.49256676
109	0x3e835be4	0.25656044
110	0xbd568f91	-0.05238301
111	0x3a9f1853	0.0012137986
112	0xbef41042	-0.47668654
113	0x3e04e375	0.12977393
114	0xbe99f979	-0.30073145
115	0xbea021e6	-0.31275862
116	0x3f45dc09	0.7728887
117	0xbf0bffd9	-0.5468727
118	0xbe21c7ec	-0.1579892
119	0x3e3ef4ca	0.18648067
120	0xbe061c84	-0.13096815
121	0x3ea1f24c	0.3163017
122	0xbeb487c9	-0.35259846
123	0xbe1e0f2b	-0.15435474
124	0x3f0f131b	0.5588853
125	0xbda8bad2	-0.08238758
126	0x3f0fb44b	0.5613448
127	0xbe9c1d96	-0.30491322

feature_layer.5.weight f4 [128]
0	0x3fb2c5a8	1.396657
1	0x3f8fa3d2	1.1221869
2	0x3fafa97e	1.37236
3	0x3fb8e8cb	1.4446043
4	0x3fa3adb7	1.2787389
5	0x3fbfabd5	1.4974314
6	0x3fa0563a	1.2526314
7	0x3fd5a199	1.6689941
8	0x3fa929a9	1.3215839
9	0x3fb74aa0	1.4319649
10	0x3fcb6c35	1.5892397
11	0x3f918f09	1.1371776
12	0x3fc2778c	1.5192733
13	0x3f9d3b20	1.2283669
14	0x3f9c8657	1.2228497
15	0x3fd2ef09	1.6479198
16	0x400f1035	2.2353642
17	0x3fdcda67	1.7254151
18	0x3f93186b	1.1491827
19	0x3fbd1212	1.477114
20	0x3fcac966	1.5842712
21	0x3f8b1e4a	1.0868618
22	0x3f910bf9	1.1331779
23	0x3fb8c521	1.4435159
24	0x3fd8d701	1.6940614
25	0x3f9dccc2	1.2328112
26	0x3fa17b14	1.2615685
27	0x400e34bb	2.2219684
28	0x3ff002dd	1.8750874
29	0x3fad86fd	1.355682
30	0x3fd975f8	1.6989126
31	0x3fb91148	1.4458399
32	0x401151e5	2.2706234
33	0x3f750cab	0.95722455
34	0x3fc03659	1.5016586
35	0x3f6b01cd	0.9179962
36	0x3fad9e19	1.3563873
37	0x3fb4aad7	1.4114636
38	0x3ff09e18	1.8798246
39	0x3f836c30	1.0267391
40	0x3f77ee64	0.9684813
41	0x3fab9b51	1.3406774
42	0x3fb44dc4	1.4086232
43	0x3fabc0c0	1.3418198
44	0x3fcd7238	1.6050482
45	0x3fcb0afc	1.5862727
46	0x3fe472c4	1.7847524
47	0x3f93af20	1.1537819
48	0x3f944738	1.1584234
49	0x3facdc21	1.3504678
50	0x3fdc3862	1.7204707
51	0x3f3cd073	0.7375557
52	0x3f960d82	1.1722872
53	0x3fef9bb7	1.8719395
54	0x4010e00c	2.2636747
55	0x3ffd81cf	1.980524
56	0x4006684c	2.1001158
57	0x3fab72ea	1.3394444
58	0x3fa40d42	1.2816546
59	0x3f97b403	1.185181
60	0x3f7ecb6a	0.99529135
61	0x3fa074a1	1.2535592
62	0x3fb0d609	1.3815318
63	0x3f92b276	1.1460712
64	0x3fa0018f	1.2500476
65	0x3f9c2c70	1.2201061
66	0x3f901520	1.1256447
67	0x3fc0c092	1.5058768
68	0x3fad455e	1.3536794
69	0x40010a1e	2.0162425
70	0x3f88e4ad	1.0694786
71	0x3fba06c5	1.4533316
72	0x3f9ca428	1.2237597
73	0x3f3e2d5b	0.74287957
74	0x3fd53e8a	1.665971
75	0x3fa97f2b	1.3241934
76	0x3fc5e1b0	1.5459499
77	0x3fd96161	1.6982843
78	0x3fe845bb	1.814628
79	0x3fa65457	1.2994488
80	0x3fea1990	1.8289051
81	0x3fcf6c56	1.6204937
82	0x3f9e6cff	1.2377013
83	0x3fe1ceeb	1.7641271
84	0x3fbadeba	1.4599221
85	0x3fc5abe7	1.5443085
86	0x3fd35677	1.6510762
87	0x3faa1aab	1.3289388
88	0x3fb2f6f0	1.3981609
89	0x3fbf0d15	1.4925867
90	0x4005ee75	2.0926793
91	0x3fa82484	1.3136144
92	0x3f8c1d31	1.0946409
93	0x3f80ee8f	1.0072802
94	0x3fa11464	1.2584348
95	0x3f84205d	1.0322376
96	0x40770077	3.8594034
97	0x3fb96d57	1.4486493
98	0x3fbc5746	1.4714134
99	0x3f8a55e0	1.0807457
100	0x3f8b23cb	1.0870298
101	0x3fae092d	1.359655
102	0x3f8e77e4	1.1130338
103	0x3fb5cf51	1.4203893
104	0x3fb6f5ff	1.4293822
105	0x3fb337fa	1.4001458
106	0x3fc25065	1.5180784
107	0x3f93c824	1.1545453
108	0x3f66c506	0.90144384
109	0x3fa7be6d	1.3104988
110	0x3fc2a71d	1.5207249
111	0x3f981f64	1.188458
112	0x40060457	2.094015
113	0x3f765cbc	0.9623525
114	0x3fa87296	1.3159969
115	0x3f961458	1.1724958
116	0x3fa73ac1	1.3064805
117	0x3f645fda	0.8920876
118	0x3f8b697f	1.089157
119	0x3fa4696f	1.2844676
120	0x3ff22fa2	1.8920786
121	0x3fc2a803	1.5207523
122	0x3fc8b3f7	1.5679921
123	0x3fb20cfc	1.3910213
124	0x3f8de8e8	1.1086702
125	0x3fc1f2b6	1.5152194
126	0x3fb8c49b	1.4434999
127	0x3f8f1ae1	1.1180078

feature_layer.5.bias f4 [128]
0	0x3eab285b	0.33429226
1	0x3dc3759e	0.09543918
2	0xbece61a5	-0.40308872
3	0x3e7ab15f	0.24481724
4	0x3f45cb35	0.77263194
5	0xbd9c2854	-0.076248795
6	0x3c0716de	0.008245198
7	0xbe9df05b	-0.3084744
8	0x3e5d73f2	0.21626261
9	0x3d2e87d4	0.042610005
10	0xbe7e0892	-0.24807957
11	0xbe4b0e2e	-0.19829628
12	0x3dcf1b90	0.10112679
13	0x3d2cd44b	0.042194646
14	0xbdcdb964	-0.10045126
15	0x3f02905c	0.51001525
16	0x3c5f8fd3	0.01364513
17	0xbdfbba15	-0.12291352
18	0xbb31d4c4	-0.0027134875
19	0x3e44642a	0.19178835
20	0x3dca973d	0.09892128
21	0x3ec8e85c	0.39239776
22	0x3db4bc1c	0.088249415
23	0x3ea05494	0.31314528
24	0x3f04d408	0.51886034
25	0xbe5495f9	-0.20760335
26	0x3e6e99db	0.23300879
27	0x3dbe74a7	0.092995934
28	0xbe5a56bf	-0.21322154
29	0xbe22ca86	-0.15897569
30	0xbd3614b5	-0.04445334
31	0xbe5e4ab2	-0.21708182
32	0xbe93ce0e	-0.28868145
33	0xbe19fd6a	-0.15038076
34	0x3e40d8bd	0.18832679
35	0xbee74d8a	-0.45176345
36	0xbe01e274	-0.12684041
37	0xbe4a1c4e	-0.1973736
38	0x3e932c71	0.28744844
39	0xbeda20ff	-0.426033
40	0xbdaa4a6a	-0.083149746
41	0x3f48ceaa	0.78440344
42	0x3e268891	0.16263033
43	0x3f12e926	0.57387006
44	0x3dc663a9	0.096869774
45	0xbeb099a1	-0.3449221
46	0xbdfdc474	-0.12390986
47	0xbdbc3dbf	-0.09191465
48	0xbf04379c	-0.51647353
49	0xbc1ec226	-0.009689843
50	0xbe482a9a	-0.19547501
51	0xbed9a9fa	-0.42512494
52	0x3f1550fd	0.58326703
53	0xbe241af9	-0.16025914
54	0xbe58f235	-0.21186145
55	0xbe0400da	-0.1289095
56	0x3d53d6e5	0.05171861
57	0xbd05ef1c	-0.032698736
58	0x3b19eae0	0.0023485944
59	0x3ed45e2e	0.41478103
60	0x3f1881b2	0.595729
61	0xbdab2f77	-0.083586626
62	0xbe8d5c2f	-0.27609393
63	0xbe97a1d0	-0.2961564
64	0xbe86ac79	-0.2630346
65	0xbe9d776f	-0.30755183
66	0x3f4055be	0.7513083
67	0x3d7a7f17	0.06115636
68	0x3e8ee074	0.2790562
69	0x3dee8d02	0.11647989
70	0xbeaf1c62	-0.34201342
71	0xbd20b2d5	-0.039233048
72	0x3f166d8d	0.5876091
73	0xbedd5e34	-0.43235934
74	0xbdee3851	-0.11631835
75	0xbef00c7f	-0.46884534
76	0xbe525f98	-0.20544279
77	0x3ddf2afe	0.10896872
78	0x3e146365	0.14491041
79	0x3d918217	0.07104891
80	0xbe8975e0	-0.26847744
81	0x3d756b3e	0.059916727
82	0x3daeb0b4	0.08529797
83	0xbda15af0	-0.07878673
84	0x3f014e42	0.50510037
85	0x3e5ca9c4	0.21549135
86	0xbe103c91	-0.14085604
87	0x3d9b6453	0.07587495
88	0xbc99fdd3	-0.01879779
89	0xbe3edb33	-0.18638305
90	0xbdeca36d	-0.115546085
91	0xbe19c5dd	-0.15016885
92	0xbc8a40d1	-0.01687661
93	0xbefab537	-0.4896638
94	0x3db174c7	0.08664852
95	0xbeb5c9d8	-0.35505557
96	0xbe850194	-0.25977767
97	0x3e290607	0.16506205
98	0x3f0f3589	0.55941063
99	0xbcfae0f9	-0.030624853
100	0x3ee8c318	0.45461345
101	0xbbc5aa1b	-0.006032241
102	0xbe3487fd	-0.1763
103	0x3e3f1b17	0.18662678
104	0xbdcea42e	-0.100899085
105	0x3edea8f5	0.4348828
106	0xbe48d503	-0.19612508
107	0xbdd5b616	-0.10435121
108	0xbe384f14	-0.17998916
109	0x3dbd60f9	0.09247012
110	0x3e7f7b50	0.24949384
111	0xbe152b16	-0.14567217
112	0xbea350a3	-0.31897458
113	0x3f478ceb	0.779494
114	0xbd260800	-0.040534973
115	0xbebcc199	-0.36866453
116	0x3ec66813	0.38751277
117	0xbe99247f	-0.29910657
118	0xbe232533	-0.15932159
119	0x3e11bea1	0.14232875
120	0x3df4adc3	0.11947205
121	0x3e7e9e92	0.24865177
122	0xbe64f16c	-0.2235772
123	0xbd532586	-0.051549457
124	0x3edffa70	0.43745756
125	0x3e88b406	0.26699847
126	0x3e3e0072	0.18554857
127	0xbecac0eb	-0.3960031

value_stream.0.weight f4 [128, 128]
0	0xbd35d636	-0.04439374
1	0x3eae568a	0.340504
2	0xbf3175aa	-0.69320166
3	0x3e2c48d4	0.16824657
4	0x3dcd2eb2	0.10018672
5	0xbd834e3c	-0.064114064
6	0x3de4558e	0.11149131
7	0x3e718c52	0.23588684
8	0xbdf6986c	-0.12040791
9	0x3d56d528	0.052449375
10	0x3df5d49b	0.12003442
11	0x3d30c1e8	0.043153673
12	0x3e9e62f7	0.3093488
13	0xbe35ee3a	-0.17766657
14	0x3f32ab77	0.69792885
15	0x3eaa1676	0.3322026
16	0x3d964f6f	0.073393695
17	0xbd4806ef	-0.048834737
18	0xbe999350	-0.29995203
19	0x3ed67616	0.41886967
20	0xbe71adb0	-0.23601413
21	0x3d928708	0.071546614
22	0xbdbe7a05	-0.09300617
23	0x3d20395a	0.039117195
24	0x3e0a3113	0.13495283
25	0xbe6971a6	-0.2279726
26	0xbf275024	-0.6535666
27	0xbe815cf9	-0.25266245
28	0xbe8ac912	-0.2710653
29	0xbd8a9951	-0.06767524
30	0xbf26b469	-0.65119034
31	0x3e836d22	0.256692
32	0xbce8a12f	-0.02839717
33	0x3ea72280	0.3264351
34	0xbf99e133	-1.202185
35	0x3e562ee8	0.20916331
36	0xbf0b1ce0	-0.54340935
37	0xbeccc0e9	-0.3999093
38	0x3ead678d	0.33868065
39	0xbe28655e	-0.16444919
40	0xbdab1c95	-0.08355061
41	0xbe1f1471	-0.15535142
42	0xbede2513	-0.4338766
43	0x3d576af6	0.05259224
44	0x3f27458a	0.65340483
45	0xbc09532c	-0.008381646
46	0xbedba07a	-0.4289587
47	0x3ed8b9ef	0.42329356
48	0xbb941fd1	-0.0045203944
49	0x3d951835	0.07280008
50	0xbbc7df17	-0.0060995924
51	0x3b2d06bb	0.0026401717
52	0xbea64d94	-0.32481062
53	0x3dfb0c1c	0.12258169
54	0x3e934523	0.28763685
55	0xbebce57f	-0.36893842
56	0x3d54a697	0.051916685
57	0xbf93d331	-1.1548826
58	0xbf8bd9fe	-1.0925901
59	0xbc6b77f6	-0.014371863
60	0xbd9c0316	-0.07617776
61	0xbed030e6	-0.40662307
62	0x3e7e29e7	0.24820672
63	0x3e3dd160	0.18536901
64	0x3f0d1d48	0.55122805
65	0xbde22b32	-0.11043395
66	0xbf222324	-0.6333487
67	0x3f0bc253	0.5459339
68	0x3e6fbf70	0.23412871
69	0x3f116bbc	0.56805015
70	0x3e54bfe7	0.2077633
71	0xbe9385a3	-0.28812894
72	0x3eb39ca1	0.35080436
73	0xbe153df4	-0.14574414
74	0x3f29b02b	0.66284436
75	0x3dabb575	0.083842196
76	0xbe1d6b35	-0.15372927
77	0xbf857367	-1.0425843
78	0xbe20cb09	-0.15702452
79	0xbee3f239	-0.4452074
80	0xbe82f371	-0.25576356
81	0xbf319284	-0.6936419
82	0xbe99d01d	-0.3004159
83	0x3dd504fe	0.10401343
84	0xbdd7af5a	-0.105314925
85	0x3e287c78	0.16453731
86	0x3e9ec9cb	0.3101333
87	0x3d9944e8	0.07483846
88	0xbf1948a2	-0.59876454
89	0x3f21eaf3	0.6324913
90	0x3e410394	0.18849021
91	0xbef2ce5d	-0.47423068
92	0xbd3041e8	-0.043031603
93	0x3c9f5ab1	0.019452425
94	0x3e27ba75	0.16379721
95	0x3e28f3de	0.16499278
96	0x3fb85d7a	1.4403527
97	0x3edd0d32	0.4317413
98	0xbd9cd39c	-0.07657549
99	0x3d8c5b4e	0.068533525
100	0xbe8b0b57	-0.2715709
101	0xbdbc0363	-0.091803335
102	0xbef0dd68	-0.4704392
103	0x3ebc8d48	0.3682654
104	0xbcbe9b5e	-0.023267444
105	0xbee9d234	-0.45668185
106	0xbe47b359	-0.1950201
107	0x3d88962f	0.0666927
108	0x3e4758f8	0.19467533
109	0xbe8446d0	-0.25835276
110	0x3e580d5a	0.21098843
111	0xbeb10ea9	-0.34581497
112	0xbca2fa54	-0.019894756
113	0x3f1e5eeb	0.61863583
114	0xbef0cf5c	-0.47033203
115	0xbf030079	-0.51172596
116	0x3e5e84a4	0.21730286
117	0xbd38445b	-0.044987064
118	0xbd7cdf02	-0.061736114
119	0xbe6cec65	-0.23137052
120	0xbef2f4fe	-0.4745254
121	0xbeefc875	-0.46832624
122	0x3caef42c	0.021356665
123	0xbeeaf8ba	-0.45892888
124	0xbd193098	-0.03739986
125	0xbe017430	-0.12641978
126	0x3ef93a90	0.48677492
127	0xbcdd889a	-0.027042676
128	0xbf1d8ed5	-0.6154607
129	0xbeca4731	-0.3950744
130	0x3e7c4dfe	0.24639127
131	0xbf04e4e7	-0.5191178
132	0xbf9186a2	-1.1369212
133	0x3ee689c0	0.4502697
134	0xbf000f1d	-0.5002306
135	0x3f7792cd	0.96708375
136	0xbf2b0a2a	-0.66812384
137	0x3ec87358	0.391505
138	0x3f9abdc5	1.2089163
139	0x3d6600b5	0.056153018
140	0xbe8a8b69	-0.27059487
141	0xbf21d688	-0.63217974
142	0x3e4034b0	0.18770099
143	0xbe8cac87	-0.27475378
144	0x3fd75f32	1.6825926
145	0xbe078a86	-0.13236436
146	0xbe840aa6	-0.25789374
147	0xbe543906	-0.20724878
148	0x3f4b5c2b	0.7943751
149	0xbf50c27c	-0.8154676
150	0x3c24b4ba	0.010052854
151	0xbf701866	-0.9378723
152	0xbfa9c0e4	-1.326199
153	0xbd0abeb7	-0.033873286
154	0xbee0ed97	-0.43931267
155	0xbf429664	-0.7601073
156	0x3f7392d3	0.9514591
157	0x3dd0c832	0.10194434
158	0x3f2e7656	0.68149316
159	0xbdc71b90	-0.09722054
160	0x3f8aabd8	1.0833693
161	0x3f070942	0.527485
162	0xbe1beabb	-0.15226261
163	0x3dd5c7f2	0.10438527
164	0x3ef48447	0.4775717
165	0x3e95f9b0	0.2929206
166	0xbe8c9c15	-0.2746283
167	0x3ef7e950	0.4842019
168	0xbe93b986	-0.2885248
169	0xbf72796d	-0.9471653
170	0xbe7f1efe	-0.24914166
171	0xbf6db450	-0.9285326
172	0xbf614d56	-0.8800863
173	0x3f3c7f5d	0.7363184
174	0x3f15efa0	0.58568764
175	0x3f2b0358	0.6680198
176	0x3f18fd35	0.59761363
177	0xbeae14f4	-0.3400036
178	0x3f143bb9	0.5790363
179	0x3eddf355	0.4334971
180	0xbf7b903a	-0.9826695
181	0x3f44a77a	0.7681805
182	0x3f9b10c4	1.2114491
183	0x3f9b9fa8	1.2158098
184	0x3fd9df1b	1.7021211
185	0xbe7cca3f	-0.24686526
186	0xbdf6e91e	-0.12056182
187	0xbf3525e8	-0.70760965
188	0xbf4e649d	-0.80622274
189	0xbe98165f	-0.29704568
190	0x3ef46ead	0.4774069
191	0x3d8d27e1	0.06892372
192	0xbe984bd3	-0.2974535
193	0x3f58655a	0.8452965
194	0xbf8b3a0a	-1.0877087
195	0x3f1bcfad	0.60863763
196	0x3e049e50	0.12951016
197	0xbf3830b1	-0.719493
198	0x3e0d0f20	0.13775301
199	0xbdea4a00	-0.11439896
200	0xbf410737	-0.75401634
201	0x3ecdea6d	0.40217915
202	0x3dfbb5f8	0.12290567
203	0x3f9fbfc1	1.2480394
204	0x3e06a044	0.13147074
205	0xbe82a13a	-0.2551363
206	0x3edbd340	0.42934608
207	0xbeabfb19	-0.3359001
208	0x3f7df07c	0.99195075
209	0x3e59cfd1	0.21270682
210	0x3e63bc1a	0.22239724
211	0x3faca683	1.3488315
212	0xbf91b333	-1.1382812
213	0x3e2c2f9f	0.16815041
214	0x3eea97dc	0.45818985
215	0xbec14334	-0.37746584
216	0xbe97581c	-0.2955941
217	0x3e80710b	0.25086245
218	0x3f82f667	1.0231446
219	0x3e14cb3e	0.14530656
220	0x3c7705a7	0.015077031
221	0x3eced8a3	0.40399656
222	0xbeac318d	-0.33631554
223	0x3f0a954c	0.5413406
224	0x3f9c1bbb	1.2195963
225	0xbec27aa6	-0.37984198
226	0x3d689d7c	0.056790814
227	0x3e1bc51b	0.15211909
228	0xbf6d11ea	-0.9260546
229	0x3e27ba11	0.16379572
230	0xbe906893	-0.28204784
231	0xbeabd6f3	-0.3356243
232	0xbf2c0c4a	-0.6720625
233	0xbedb9319	-0.42885664
234	0x3dace97f	0.08442973
235	0x3e58ea1b	0.21183054
236	0xbc8c0402	-0.017091755
237	0xbf1884a6	-0.59577405
238	0x3f5c00b2	0.8593856
239	0xbd9b2367	-0.07575112
240	0x3fb32221	1.399479
241	0x3c259a76	0.010107627
242	0x3f5ee5e6	0.8706955
243	0x3ee3e63a	0.44511586
244	0xbf2beb5b	-0.67156
245	0x3f33200d	0.6997078
246	0xbdbb4327	-0.09143668
247	0xbeab1205	-0.33412185
248	0x3eb29169	0.34876564
249	0xbed70b9d	-0.42001048
250	0x3f835b99	1.0262328
251	0x3eb1a0ba	0.34692937
252	0xbf2d081c	-0.675905
253	0xbe4a590c	-0.19760531
254	0xbf1f02ee	-0.62113845
255	0x3eb490df	0.35266778
